{"format": "graph-model", "generatedBy": "1.13.1", "convertedBy": "TensorFlow.js Converter v1.1.2", "modelTopology": {"node": [{"name": "sub_2", "op": "Placeholder", "attr": {"shape": {"shape": {"dim": [{"size": "1"}, {"size": "-1"}, {"size": "-1"}, {"size": "3"}]}}, "dtype": {"type": "DT_FLOAT"}}}, {"name": "resnet_v1_50/displacement_fwd_2/Conv2D_bias", "op": "Const", "attr": {"value": {"tensor": {"dtype": "DT_FLOAT", "tensorShape": {"dim": [{"size": "32"}]}}}, "dtype": {"type": "DT_FLOAT"}}}, {"name": "resnet_v1_50/displacement_fwd_2/weights", "op": "Const", "attr": {"value": {"tensor": {"dtype": "DT_FLOAT", "tensorShape": {"dim": [{"size": "1"}, {"size": "1"}, {"size": "2048"}, {"size": "32"}]}}}, "dtype": {"type": "DT_FLOAT"}}}, {"name": "resnet_v1_50/block4/unit_3/bottleneck_v1/conv3/Conv2D_bias", "op": "Const", "attr": {"dtype": {"type": "DT_FLOAT"}, "value": {"tensor": {"dtype": "DT_FLOAT", "tensorShape": {"dim": [{"size": "2048"}]}}}}}, {"name": "resnet_v1_50/block4/unit_3/bottleneck_v1/conv3/weights", "op": "Const", "attr": {"dtype": {"type": "DT_FLOAT"}, "value": {"tensor": {"dtype": "DT_FLOAT", "tensorShape": {"dim": [{"size": "1"}, {"size": "1"}, {"size": "512"}, {"size": "2048"}]}}}}}, {"name": "resnet_v1_50/block4/unit_3/bottleneck_v1/conv2/Conv2D_bias", "op": "Const", "attr": {"value": {"tensor": {"dtype": "DT_FLOAT", "tensorShape": {"dim": [{"size": "512"}]}}}, "dtype": {"type": "DT_FLOAT"}}}, {"name": "resnet_v1_50/block4/unit_3/bottleneck_v1/conv2/weights", "op": "Const", "attr": {"value": {"tensor": {"dtype": "DT_FLOAT", "tensorShape": {"dim": [{"size": "3"}, {"size": "3"}, {"size": "512"}, {"size": "512"}]}}}, "dtype": {"type": "DT_FLOAT"}}}, {"name": "resnet_v1_50/block4/unit_3/bottleneck_v1/conv1/Conv2D_bias", "op": "Const", "attr": {"value": {"tensor": {"dtype": "DT_FLOAT", "tensorShape": {"dim": [{"size": "512"}]}}}, "dtype": {"type": "DT_FLOAT"}}}, {"name": "resnet_v1_50/block4/unit_3/bottleneck_v1/conv1/weights", "op": "Const", "attr": {"value": {"tensor": {"dtype": "DT_FLOAT", "tensorShape": {"dim": [{"size": "1"}, {"size": "1"}, {"size": "2048"}, {"size": "512"}]}}}, "dtype": {"type": "DT_FLOAT"}}}, {"name": "resnet_v1_50/block4/unit_2/bottleneck_v1/conv3/Conv2D_bias", "op": "Const", "attr": {"value": {"tensor": {"dtype": "DT_FLOAT", "tensorShape": {"dim": [{"size": "2048"}]}}}, "dtype": {"type": "DT_FLOAT"}}}, {"name": "resnet_v1_50/block4/unit_2/bottleneck_v1/conv3/weights", "op": "Const", "attr": {"value": {"tensor": {"dtype": "DT_FLOAT", "tensorShape": {"dim": [{"size": "1"}, {"size": "1"}, {"size": "512"}, {"size": "2048"}]}}}, "dtype": {"type": "DT_FLOAT"}}}, {"name": "resnet_v1_50/block4/unit_2/bottleneck_v1/conv2/Conv2D_bias", "op": "Const", "attr": {"value": {"tensor": {"dtype": "DT_FLOAT", "tensorShape": {"dim": [{"size": "512"}]}}}, "dtype": {"type": "DT_FLOAT"}}}, {"name": "resnet_v1_50/block4/unit_2/bottleneck_v1/conv2/weights", "op": "Const", "attr": {"value": {"tensor": {"dtype": "DT_FLOAT", "tensorShape": {"dim": [{"size": "3"}, {"size": "3"}, {"size": "512"}, {"size": "512"}]}}}, "dtype": {"type": "DT_FLOAT"}}}, {"name": "resnet_v1_50/block4/unit_2/bottleneck_v1/conv1/Conv2D_bias", "op": "Const", "attr": {"value": {"tensor": {"dtype": "DT_FLOAT", "tensorShape": {"dim": [{"size": "512"}]}}}, "dtype": {"type": "DT_FLOAT"}}}, {"name": "resnet_v1_50/block4/unit_2/bottleneck_v1/conv1/weights", "op": "Const", "attr": {"value": {"tensor": {"dtype": "DT_FLOAT", "tensorShape": {"dim": [{"size": "1"}, {"size": "1"}, {"size": "2048"}, {"size": "512"}]}}}, "dtype": {"type": "DT_FLOAT"}}}, {"name": "resnet_v1_50/block4/unit_1/bottleneck_v1/shortcut/Conv2D_bias", "op": "Const", "attr": {"dtype": {"type": "DT_FLOAT"}, "value": {"tensor": {"dtype": "DT_FLOAT", "tensorShape": {"dim": [{"size": "2048"}]}}}}}, {"name": "resnet_v1_50/block4/unit_1/bottleneck_v1/shortcut/weights", "op": "Const", "attr": {"value": {"tensor": {"dtype": "DT_FLOAT", "tensorShape": {"dim": [{"size": "1"}, {"size": "1"}, {"size": "1024"}, {"size": "2048"}]}}}, "dtype": {"type": "DT_FLOAT"}}}, {"name": "resnet_v1_50/block3/unit_5/bottleneck_v1/conv3/Conv2D_bias", "op": "Const", "attr": {"value": {"tensor": {"dtype": "DT_FLOAT", "tensorShape": {"dim": [{"size": "1024"}]}}}, "dtype": {"type": "DT_FLOAT"}}}, {"name": "resnet_v1_50/block3/unit_5/bottleneck_v1/conv3/weights", "op": "Const", "attr": {"value": {"tensor": {"dtype": "DT_FLOAT", "tensorShape": {"dim": [{"size": "1"}, {"size": "1"}, {"size": "256"}, {"size": "1024"}]}}}, "dtype": {"type": "DT_FLOAT"}}}, {"name": "resnet_v1_50/block3/unit_5/bottleneck_v1/conv2/Conv2D_bias", "op": "Const", "attr": {"value": {"tensor": {"dtype": "DT_FLOAT", "tensorShape": {"dim": [{"size": "256"}]}}}, "dtype": {"type": "DT_FLOAT"}}}, {"name": "resnet_v1_50/block3/unit_5/bottleneck_v1/conv2/weights", "op": "Const", "attr": {"dtype": {"type": "DT_FLOAT"}, "value": {"tensor": {"dtype": "DT_FLOAT", "tensorShape": {"dim": [{"size": "3"}, {"size": "3"}, {"size": "256"}, {"size": "256"}]}}}}}, {"name": "resnet_v1_50/block3/unit_5/bottleneck_v1/conv1/Conv2D_bias", "op": "Const", "attr": {"dtype": {"type": "DT_FLOAT"}, "value": {"tensor": {"dtype": "DT_FLOAT", "tensorShape": {"dim": [{"size": "256"}]}}}}}, {"name": "resnet_v1_50/block3/unit_5/bottleneck_v1/conv1/weights", "op": "Const", "attr": {"value": {"tensor": {"dtype": "DT_FLOAT", "tensorShape": {"dim": [{"size": "1"}, {"size": "1"}, {"size": "1024"}, {"size": "256"}]}}}, "dtype": {"type": "DT_FLOAT"}}}, {"name": "resnet_v1_50/block3/unit_4/bottleneck_v1/conv3/Conv2D_bias", "op": "Const", "attr": {"value": {"tensor": {"dtype": "DT_FLOAT", "tensorShape": {"dim": [{"size": "1024"}]}}}, "dtype": {"type": "DT_FLOAT"}}}, {"name": "resnet_v1_50/block3/unit_4/bottleneck_v1/conv3/weights", "op": "Const", "attr": {"value": {"tensor": {"dtype": "DT_FLOAT", "tensorShape": {"dim": [{"size": "1"}, {"size": "1"}, {"size": "256"}, {"size": "1024"}]}}}, "dtype": {"type": "DT_FLOAT"}}}, {"name": "resnet_v1_50/block3/unit_4/bottleneck_v1/conv2/Conv2D_bias", "op": "Const", "attr": {"value": {"tensor": {"dtype": "DT_FLOAT", "tensorShape": {"dim": [{"size": "256"}]}}}, "dtype": {"type": "DT_FLOAT"}}}, {"name": "resnet_v1_50/block3/unit_4/bottleneck_v1/conv2/weights", "op": "Const", "attr": {"value": {"tensor": {"dtype": "DT_FLOAT", "tensorShape": {"dim": [{"size": "3"}, {"size": "3"}, {"size": "256"}, {"size": "256"}]}}}, "dtype": {"type": "DT_FLOAT"}}}, {"name": "resnet_v1_50/block3/unit_4/bottleneck_v1/conv1/Conv2D_bias", "op": "Const", "attr": {"value": {"tensor": {"dtype": "DT_FLOAT", "tensorShape": {"dim": [{"size": "256"}]}}}, "dtype": {"type": "DT_FLOAT"}}}, {"name": "resnet_v1_50/block3/unit_4/bottleneck_v1/conv1/weights", "op": "Const", "attr": {"value": {"tensor": {"dtype": "DT_FLOAT", "tensorShape": {"dim": [{"size": "1"}, {"size": "1"}, {"size": "1024"}, {"size": "256"}]}}}, "dtype": {"type": "DT_FLOAT"}}}, {"name": "resnet_v1_50/block3/unit_3/bottleneck_v1/conv3/Conv2D_bias", "op": "Const", "attr": {"value": {"tensor": {"dtype": "DT_FLOAT", "tensorShape": {"dim": [{"size": "1024"}]}}}, "dtype": {"type": "DT_FLOAT"}}}, {"name": "resnet_v1_50/block3/unit_3/bottleneck_v1/conv3/weights", "op": "Const", "attr": {"value": {"tensor": {"dtype": "DT_FLOAT", "tensorShape": {"dim": [{"size": "1"}, {"size": "1"}, {"size": "256"}, {"size": "1024"}]}}}, "dtype": {"type": "DT_FLOAT"}}}, {"name": "resnet_v1_50/block3/unit_3/bottleneck_v1/conv2/Conv2D_bias", "op": "Const", "attr": {"value": {"tensor": {"dtype": "DT_FLOAT", "tensorShape": {"dim": [{"size": "256"}]}}}, "dtype": {"type": "DT_FLOAT"}}}, {"name": "resnet_v1_50/block3/unit_3/bottleneck_v1/conv2/weights", "op": "Const", "attr": {"value": {"tensor": {"dtype": "DT_FLOAT", "tensorShape": {"dim": [{"size": "3"}, {"size": "3"}, {"size": "256"}, {"size": "256"}]}}}, "dtype": {"type": "DT_FLOAT"}}}, {"name": "resnet_v1_50/block3/unit_3/bottleneck_v1/conv1/Conv2D_bias", "op": "Const", "attr": {"value": {"tensor": {"dtype": "DT_FLOAT", "tensorShape": {"dim": [{"size": "256"}]}}}, "dtype": {"type": "DT_FLOAT"}}}, {"name": "resnet_v1_50/block3/unit_3/bottleneck_v1/conv1/weights", "op": "Const", "attr": {"dtype": {"type": "DT_FLOAT"}, "value": {"tensor": {"dtype": "DT_FLOAT", "tensorShape": {"dim": [{"size": "1"}, {"size": "1"}, {"size": "1024"}, {"size": "256"}]}}}}}, {"name": "resnet_v1_50/block3/unit_2/bottleneck_v1/conv3/Conv2D_bias", "op": "Const", "attr": {"dtype": {"type": "DT_FLOAT"}, "value": {"tensor": {"dtype": "DT_FLOAT", "tensorShape": {"dim": [{"size": "1024"}]}}}}}, {"name": "resnet_v1_50/block3/unit_2/bottleneck_v1/conv3/weights", "op": "Const", "attr": {"dtype": {"type": "DT_FLOAT"}, "value": {"tensor": {"dtype": "DT_FLOAT", "tensorShape": {"dim": [{"size": "1"}, {"size": "1"}, {"size": "256"}, {"size": "1024"}]}}}}}, {"name": "resnet_v1_50/block3/unit_2/bottleneck_v1/conv2/Conv2D_bias", "op": "Const", "attr": {"value": {"tensor": {"dtype": "DT_FLOAT", "tensorShape": {"dim": [{"size": "256"}]}}}, "dtype": {"type": "DT_FLOAT"}}}, {"name": "resnet_v1_50/block3/unit_2/bottleneck_v1/conv2/weights", "op": "Const", "attr": {"value": {"tensor": {"dtype": "DT_FLOAT", "tensorShape": {"dim": [{"size": "3"}, {"size": "3"}, {"size": "256"}, {"size": "256"}]}}}, "dtype": {"type": "DT_FLOAT"}}}, {"name": "resnet_v1_50/block3/unit_2/bottleneck_v1/conv1/Conv2D_bias", "op": "Const", "attr": {"value": {"tensor": {"dtype": "DT_FLOAT", "tensorShape": {"dim": [{"size": "256"}]}}}, "dtype": {"type": "DT_FLOAT"}}}, {"name": "resnet_v1_50/block3/unit_2/bottleneck_v1/conv1/weights", "op": "Const", "attr": {"value": {"tensor": {"dtype": "DT_FLOAT", "tensorShape": {"dim": [{"size": "1"}, {"size": "1"}, {"size": "1024"}, {"size": "256"}]}}}, "dtype": {"type": "DT_FLOAT"}}}, {"name": "resnet_v1_50/block3/unit_1/bottleneck_v1/shortcut/Conv2D_bias", "op": "Const", "attr": {"value": {"tensor": {"dtype": "DT_FLOAT", "tensorShape": {"dim": [{"size": "1024"}]}}}, "dtype": {"type": "DT_FLOAT"}}}, {"name": "resnet_v1_50/block3/unit_1/bottleneck_v1/shortcut/weights", "op": "Const", "attr": {"value": {"tensor": {"dtype": "DT_FLOAT", "tensorShape": {"dim": [{"size": "1"}, {"size": "1"}, {"size": "512"}, {"size": "1024"}]}}}, "dtype": {"type": "DT_FLOAT"}}}, {"name": "resnet_v1_50/block2/unit_3/bottleneck_v1/conv3/Conv2D_bias", "op": "Const", "attr": {"value": {"tensor": {"dtype": "DT_FLOAT", "tensorShape": {"dim": [{"size": "512"}]}}}, "dtype": {"type": "DT_FLOAT"}}}, {"name": "resnet_v1_50/block2/unit_3/bottleneck_v1/conv3/weights", "op": "Const", "attr": {"value": {"tensor": {"dtype": "DT_FLOAT", "tensorShape": {"dim": [{"size": "1"}, {"size": "1"}, {"size": "128"}, {"size": "512"}]}}}, "dtype": {"type": "DT_FLOAT"}}}, {"name": "resnet_v1_50/block2/unit_3/bottleneck_v1/conv2/Conv2D_bias", "op": "Const", "attr": {"value": {"tensor": {"dtype": "DT_FLOAT", "tensorShape": {"dim": [{"size": "128"}]}}}, "dtype": {"type": "DT_FLOAT"}}}, {"name": "resnet_v1_50/block2/unit_3/bottleneck_v1/conv2/weights", "op": "Const", "attr": {"value": {"tensor": {"dtype": "DT_FLOAT", "tensorShape": {"dim": [{"size": "3"}, {"size": "3"}, {"size": "128"}, {"size": "128"}]}}}, "dtype": {"type": "DT_FLOAT"}}}, {"name": "resnet_v1_50/block2/unit_3/bottleneck_v1/conv1/Conv2D_bias", "op": "Const", "attr": {"value": {"tensor": {"dtype": "DT_FLOAT", "tensorShape": {"dim": [{"size": "128"}]}}}, "dtype": {"type": "DT_FLOAT"}}}, {"name": "resnet_v1_50/block2/unit_3/bottleneck_v1/conv1/weights", "op": "Const", "attr": {"dtype": {"type": "DT_FLOAT"}, "value": {"tensor": {"dtype": "DT_FLOAT", "tensorShape": {"dim": [{"size": "1"}, {"size": "1"}, {"size": "512"}, {"size": "128"}]}}}}}, {"name": "resnet_v1_50/block2/unit_2/bottleneck_v1/conv3/Conv2D_bias", "op": "Const", "attr": {"dtype": {"type": "DT_FLOAT"}, "value": {"tensor": {"dtype": "DT_FLOAT", "tensorShape": {"dim": [{"size": "512"}]}}}}}, {"name": "resnet_v1_50/block2/unit_2/bottleneck_v1/conv3/weights", "op": "Const", "attr": {"value": {"tensor": {"dtype": "DT_FLOAT", "tensorShape": {"dim": [{"size": "1"}, {"size": "1"}, {"size": "128"}, {"size": "512"}]}}}, "dtype": {"type": "DT_FLOAT"}}}, {"name": "resnet_v1_50/block2/unit_2/bottleneck_v1/conv2/Conv2D_bias", "op": "Const", "attr": {"value": {"tensor": {"dtype": "DT_FLOAT", "tensorShape": {"dim": [{"size": "128"}]}}}, "dtype": {"type": "DT_FLOAT"}}}, {"name": "resnet_v1_50/block2/unit_2/bottleneck_v1/conv2/weights", "op": "Const", "attr": {"value": {"tensor": {"dtype": "DT_FLOAT", "tensorShape": {"dim": [{"size": "3"}, {"size": "3"}, {"size": "128"}, {"size": "128"}]}}}, "dtype": {"type": "DT_FLOAT"}}}, {"name": "resnet_v1_50/block2/unit_2/bottleneck_v1/conv1/Conv2D_bias", "op": "Const", "attr": {"value": {"tensor": {"dtype": "DT_FLOAT", "tensorShape": {"dim": [{"size": "128"}]}}}, "dtype": {"type": "DT_FLOAT"}}}, {"name": "resnet_v1_50/block2/unit_2/bottleneck_v1/conv1/weights", "op": "Const", "attr": {"value": {"tensor": {"dtype": "DT_FLOAT", "tensorShape": {"dim": [{"size": "1"}, {"size": "1"}, {"size": "512"}, {"size": "128"}]}}}, "dtype": {"type": "DT_FLOAT"}}}, {"name": "resnet_v1_50/block2/unit_1/bottleneck_v1/shortcut/Conv2D_bias", "op": "Const", "attr": {"value": {"tensor": {"dtype": "DT_FLOAT", "tensorShape": {"dim": [{"size": "512"}]}}}, "dtype": {"type": "DT_FLOAT"}}}, {"name": "resnet_v1_50/block2/unit_1/bottleneck_v1/shortcut/weights", "op": "Const", "attr": {"dtype": {"type": "DT_FLOAT"}, "value": {"tensor": {"dtype": "DT_FLOAT", "tensorShape": {"dim": [{"size": "1"}, {"size": "1"}, {"size": "256"}, {"size": "512"}]}}}}}, {"name": "resnet_v1_50/block1/unit_2/bottleneck_v1/conv3/Conv2D_bias", "op": "Const", "attr": {"value": {"tensor": {"dtype": "DT_FLOAT", "tensorShape": {"dim": [{"size": "256"}]}}}, "dtype": {"type": "DT_FLOAT"}}}, {"name": "resnet_v1_50/block1/unit_2/bottleneck_v1/conv3/weights", "op": "Const", "attr": {"value": {"tensor": {"dtype": "DT_FLOAT", "tensorShape": {"dim": [{"size": "1"}, {"size": "1"}, {"size": "64"}, {"size": "256"}]}}}, "dtype": {"type": "DT_FLOAT"}}}, {"name": "resnet_v1_50/block1/unit_2/bottleneck_v1/conv2/Conv2D_bias", "op": "Const", "attr": {"value": {"tensor": {"dtype": "DT_FLOAT", "tensorShape": {"dim": [{"size": "64"}]}}}, "dtype": {"type": "DT_FLOAT"}}}, {"name": "resnet_v1_50/block1/unit_2/bottleneck_v1/conv2/weights", "op": "Const", "attr": {"value": {"tensor": {"dtype": "DT_FLOAT", "tensorShape": {"dim": [{"size": "3"}, {"size": "3"}, {"size": "64"}, {"size": "64"}]}}}, "dtype": {"type": "DT_FLOAT"}}}, {"name": "resnet_v1_50/block1/unit_2/bottleneck_v1/conv1/Conv2D_bias", "op": "Const", "attr": {"value": {"tensor": {"dtype": "DT_FLOAT", "tensorShape": {"dim": [{"size": "64"}]}}}, "dtype": {"type": "DT_FLOAT"}}}, {"name": "resnet_v1_50/block1/unit_2/bottleneck_v1/conv1/weights", "op": "Const", "attr": {"value": {"tensor": {"dtype": "DT_FLOAT", "tensorShape": {"dim": [{"size": "1"}, {"size": "1"}, {"size": "256"}, {"size": "64"}]}}}, "dtype": {"type": "DT_FLOAT"}}}, {"name": "resnet_v1_50/block1/unit_1/bottleneck_v1/shortcut/Conv2D_bias", "op": "Const", "attr": {"value": {"tensor": {"dtype": "DT_FLOAT", "tensorShape": {"dim": [{"size": "256"}]}}}, "dtype": {"type": "DT_FLOAT"}}}, {"name": "resnet_v1_50/block1/unit_1/bottleneck_v1/shortcut/weights", "op": "Const", "attr": {"value": {"tensor": {"dtype": "DT_FLOAT", "tensorShape": {"dim": [{"size": "1"}, {"size": "1"}, {"size": "64"}, {"size": "256"}]}}}, "dtype": {"type": "DT_FLOAT"}}}, {"name": "resnet_v1_50/Pad_1/paddings", "op": "Const", "attr": {"value": {"tensor": {"dtype": "DT_INT32", "tensorShape": {"dim": [{"size": "4"}, {"size": "2"}]}}}, "dtype": {"type": "DT_INT32"}}}, {"name": "resnet_v1_50/conv1/Conv2D_bias", "op": "Const", "attr": {"value": {"tensor": {"dtype": "DT_FLOAT", "tensorShape": {"dim": [{"size": "64"}]}}}, "dtype": {"type": "DT_FLOAT"}}}, {"name": "resnet_v1_50/conv1/weights", "op": "Const", "attr": {"value": {"tensor": {"dtype": "DT_FLOAT", "tensorShape": {"dim": [{"size": "7"}, {"size": "7"}, {"size": "3"}, {"size": "64"}]}}}, "dtype": {"type": "DT_FLOAT"}}}, {"name": "resnet_v1_50/Pad/paddings", "op": "Const", "attr": {"value": {"tensor": {"dtype": "DT_INT32", "tensorShape": {"dim": [{"size": "4"}, {"size": "2"}]}}}, "dtype": {"type": "DT_INT32"}}}, {"name": "resnet_v1_50/block1/unit_1/bottleneck_v1/conv3/Conv2D_bias", "op": "Const", "attr": {"value": {"tensor": {"dtype": "DT_FLOAT", "tensorShape": {"dim": [{"size": "256"}]}}}, "dtype": {"type": "DT_FLOAT"}}}, {"name": "resnet_v1_50/block1/unit_1/bottleneck_v1/conv3/weights", "op": "Const", "attr": {"value": {"tensor": {"dtype": "DT_FLOAT", "tensorShape": {"dim": [{"size": "1"}, {"size": "1"}, {"size": "64"}, {"size": "256"}]}}}, "dtype": {"type": "DT_FLOAT"}}}, {"name": "resnet_v1_50/block1/unit_1/bottleneck_v1/conv2/Conv2D_bias", "op": "Const", "attr": {"value": {"tensor": {"dtype": "DT_FLOAT", "tensorShape": {"dim": [{"size": "64"}]}}}, "dtype": {"type": "DT_FLOAT"}}}, {"name": "resnet_v1_50/block1/unit_1/bottleneck_v1/conv2/weights", "op": "Const", "attr": {"value": {"tensor": {"dtype": "DT_FLOAT", "tensorShape": {"dim": [{"size": "3"}, {"size": "3"}, {"size": "64"}, {"size": "64"}]}}}, "dtype": {"type": "DT_FLOAT"}}}, {"name": "resnet_v1_50/block1/unit_1/bottleneck_v1/conv1/Conv2D_bias", "op": "Const", "attr": {"value": {"tensor": {"dtype": "DT_FLOAT", "tensorShape": {"dim": [{"size": "64"}]}}}, "dtype": {"type": "DT_FLOAT"}}}, {"name": "resnet_v1_50/block1/unit_1/bottleneck_v1/conv1/weights", "op": "Const", "attr": {"value": {"tensor": {"dtype": "DT_FLOAT", "tensorShape": {"dim": [{"size": "1"}, {"size": "1"}, {"size": "64"}, {"size": "64"}]}}}, "dtype": {"type": "DT_FLOAT"}}}, {"name": "resnet_v1_50/block1/unit_3/bottleneck_v1/conv3/Conv2D_bias", "op": "Const", "attr": {"value": {"tensor": {"dtype": "DT_FLOAT", "tensorShape": {"dim": [{"size": "256"}]}}}, "dtype": {"type": "DT_FLOAT"}}}, {"name": "resnet_v1_50/block1/unit_3/bottleneck_v1/conv3/weights", "op": "Const", "attr": {"value": {"tensor": {"dtype": "DT_FLOAT", "tensorShape": {"dim": [{"size": "1"}, {"size": "1"}, {"size": "64"}, {"size": "256"}]}}}, "dtype": {"type": "DT_FLOAT"}}}, {"name": "resnet_v1_50/block1/unit_3/bottleneck_v1/conv2/Conv2D_bias", "op": "Const", "attr": {"value": {"tensor": {"dtype": "DT_FLOAT", "tensorShape": {"dim": [{"size": "64"}]}}}, "dtype": {"type": "DT_FLOAT"}}}, {"name": "resnet_v1_50/block1/unit_3/bottleneck_v1/conv2/weights", "op": "Const", "attr": {"dtype": {"type": "DT_FLOAT"}, "value": {"tensor": {"dtype": "DT_FLOAT", "tensorShape": {"dim": [{"size": "3"}, {"size": "3"}, {"size": "64"}, {"size": "64"}]}}}}}, {"name": "resnet_v1_50/block1/unit_3/bottleneck_v1/conv1/Conv2D_bias", "op": "Const", "attr": {"value": {"tensor": {"dtype": "DT_FLOAT", "tensorShape": {"dim": [{"size": "64"}]}}}, "dtype": {"type": "DT_FLOAT"}}}, {"name": "resnet_v1_50/block1/unit_3/bottleneck_v1/conv1/weights", "op": "Const", "attr": {"value": {"tensor": {"dtype": "DT_FLOAT", "tensorShape": {"dim": [{"size": "1"}, {"size": "1"}, {"size": "256"}, {"size": "64"}]}}}, "dtype": {"type": "DT_FLOAT"}}}, {"name": "resnet_v1_50/block2/unit_1/bottleneck_v1/conv3/Conv2D_bias", "op": "Const", "attr": {"dtype": {"type": "DT_FLOAT"}, "value": {"tensor": {"dtype": "DT_FLOAT", "tensorShape": {"dim": [{"size": "512"}]}}}}}, {"name": "resnet_v1_50/block2/unit_1/bottleneck_v1/conv3/weights", "op": "Const", "attr": {"dtype": {"type": "DT_FLOAT"}, "value": {"tensor": {"dtype": "DT_FLOAT", "tensorShape": {"dim": [{"size": "1"}, {"size": "1"}, {"size": "128"}, {"size": "512"}]}}}}}, {"name": "resnet_v1_50/block2/unit_1/bottleneck_v1/conv2/Conv2D_bias", "op": "Const", "attr": {"value": {"tensor": {"dtype": "DT_FLOAT", "tensorShape": {"dim": [{"size": "128"}]}}}, "dtype": {"type": "DT_FLOAT"}}}, {"name": "resnet_v1_50/block2/unit_1/bottleneck_v1/conv2/weights", "op": "Const", "attr": {"value": {"tensor": {"dtype": "DT_FLOAT", "tensorShape": {"dim": [{"size": "3"}, {"size": "3"}, {"size": "128"}, {"size": "128"}]}}}, "dtype": {"type": "DT_FLOAT"}}}, {"name": "resnet_v1_50/block2/unit_1/bottleneck_v1/conv1/Conv2D_bias", "op": "Const", "attr": {"dtype": {"type": "DT_FLOAT"}, "value": {"tensor": {"dtype": "DT_FLOAT", "tensorShape": {"dim": [{"size": "128"}]}}}}}, {"name": "resnet_v1_50/block2/unit_1/bottleneck_v1/conv1/weights", "op": "Const", "attr": {"value": {"tensor": {"dtype": "DT_FLOAT", "tensorShape": {"dim": [{"size": "1"}, {"size": "1"}, {"size": "256"}, {"size": "128"}]}}}, "dtype": {"type": "DT_FLOAT"}}}, {"name": "resnet_v1_50/block2/unit_4/bottleneck_v1/conv3/Conv2D_bias", "op": "Const", "attr": {"value": {"tensor": {"dtype": "DT_FLOAT", "tensorShape": {"dim": [{"size": "512"}]}}}, "dtype": {"type": "DT_FLOAT"}}}, {"name": "resnet_v1_50/block2/unit_4/bottleneck_v1/conv3/weights", "op": "Const", "attr": {"value": {"tensor": {"dtype": "DT_FLOAT", "tensorShape": {"dim": [{"size": "1"}, {"size": "1"}, {"size": "128"}, {"size": "512"}]}}}, "dtype": {"type": "DT_FLOAT"}}}, {"name": "resnet_v1_50/block2/unit_4/bottleneck_v1/conv2/Conv2D_bias", "op": "Const", "attr": {"value": {"tensor": {"dtype": "DT_FLOAT", "tensorShape": {"dim": [{"size": "128"}]}}}, "dtype": {"type": "DT_FLOAT"}}}, {"name": "resnet_v1_50/block2/unit_4/bottleneck_v1/conv2/weights", "op": "Const", "attr": {"value": {"tensor": {"dtype": "DT_FLOAT", "tensorShape": {"dim": [{"size": "3"}, {"size": "3"}, {"size": "128"}, {"size": "128"}]}}}, "dtype": {"type": "DT_FLOAT"}}}, {"name": "resnet_v1_50/block2/unit_4/bottleneck_v1/conv1/Conv2D_bias", "op": "Const", "attr": {"value": {"tensor": {"dtype": "DT_FLOAT", "tensorShape": {"dim": [{"size": "128"}]}}}, "dtype": {"type": "DT_FLOAT"}}}, {"name": "resnet_v1_50/block2/unit_4/bottleneck_v1/conv1/weights", "op": "Const", "attr": {"value": {"tensor": {"dtype": "DT_FLOAT", "tensorShape": {"dim": [{"size": "1"}, {"size": "1"}, {"size": "512"}, {"size": "128"}]}}}, "dtype": {"type": "DT_FLOAT"}}}, {"name": "resnet_v1_50/block3/unit_1/bottleneck_v1/conv3/Conv2D_bias", "op": "Const", "attr": {"value": {"tensor": {"dtype": "DT_FLOAT", "tensorShape": {"dim": [{"size": "1024"}]}}}, "dtype": {"type": "DT_FLOAT"}}}, {"name": "resnet_v1_50/block3/unit_1/bottleneck_v1/conv3/weights", "op": "Const", "attr": {"value": {"tensor": {"dtype": "DT_FLOAT", "tensorShape": {"dim": [{"size": "1"}, {"size": "1"}, {"size": "256"}, {"size": "1024"}]}}}, "dtype": {"type": "DT_FLOAT"}}}, {"name": "resnet_v1_50/block3/unit_1/bottleneck_v1/conv2/Conv2D_bias", "op": "Const", "attr": {"value": {"tensor": {"dtype": "DT_FLOAT", "tensorShape": {"dim": [{"size": "256"}]}}}, "dtype": {"type": "DT_FLOAT"}}}, {"name": "resnet_v1_50/block3/unit_1/bottleneck_v1/conv2/weights", "op": "Const", "attr": {"value": {"tensor": {"dtype": "DT_FLOAT", "tensorShape": {"dim": [{"size": "3"}, {"size": "3"}, {"size": "256"}, {"size": "256"}]}}}, "dtype": {"type": "DT_FLOAT"}}}, {"name": "resnet_v1_50/block3/unit_1/bottleneck_v1/conv1/Conv2D_bias", "op": "Const", "attr": {"value": {"tensor": {"dtype": "DT_FLOAT", "tensorShape": {"dim": [{"size": "256"}]}}}, "dtype": {"type": "DT_FLOAT"}}}, {"name": "resnet_v1_50/block3/unit_1/bottleneck_v1/conv1/weights", "op": "Const", "attr": {"value": {"tensor": {"dtype": "DT_FLOAT", "tensorShape": {"dim": [{"size": "1"}, {"size": "1"}, {"size": "512"}, {"size": "256"}]}}}, "dtype": {"type": "DT_FLOAT"}}}, {"name": "resnet_v1_50/block3/unit_6/bottleneck_v1/conv3/Conv2D_bias", "op": "Const", "attr": {"value": {"tensor": {"dtype": "DT_FLOAT", "tensorShape": {"dim": [{"size": "1024"}]}}}, "dtype": {"type": "DT_FLOAT"}}}, {"name": "resnet_v1_50/block3/unit_6/bottleneck_v1/conv3/weights", "op": "Const", "attr": {"dtype": {"type": "DT_FLOAT"}, "value": {"tensor": {"dtype": "DT_FLOAT", "tensorShape": {"dim": [{"size": "1"}, {"size": "1"}, {"size": "256"}, {"size": "1024"}]}}}}}, {"name": "resnet_v1_50/block3/unit_6/bottleneck_v1/conv2/Conv2D_bias", "op": "Const", "attr": {"value": {"tensor": {"dtype": "DT_FLOAT", "tensorShape": {"dim": [{"size": "256"}]}}}, "dtype": {"type": "DT_FLOAT"}}}, {"name": "resnet_v1_50/block3/unit_6/bottleneck_v1/conv2/weights", "op": "Const", "attr": {"value": {"tensor": {"dtype": "DT_FLOAT", "tensorShape": {"dim": [{"size": "3"}, {"size": "3"}, {"size": "256"}, {"size": "256"}]}}}, "dtype": {"type": "DT_FLOAT"}}}, {"name": "resnet_v1_50/block3/unit_6/bottleneck_v1/conv1/Conv2D_bias", "op": "Const", "attr": {"value": {"tensor": {"dtype": "DT_FLOAT", "tensorShape": {"dim": [{"size": "256"}]}}}, "dtype": {"type": "DT_FLOAT"}}}, {"name": "resnet_v1_50/block3/unit_6/bottleneck_v1/conv1/weights", "op": "Const", "attr": {"value": {"tensor": {"dtype": "DT_FLOAT", "tensorShape": {"dim": [{"size": "1"}, {"size": "1"}, {"size": "1024"}, {"size": "256"}]}}}, "dtype": {"type": "DT_FLOAT"}}}, {"name": "resnet_v1_50/block4/unit_1/bottleneck_v1/conv3/Conv2D_bias", "op": "Const", "attr": {"value": {"tensor": {"dtype": "DT_FLOAT", "tensorShape": {"dim": [{"size": "2048"}]}}}, "dtype": {"type": "DT_FLOAT"}}}, {"name": "resnet_v1_50/block4/unit_1/bottleneck_v1/conv3/weights", "op": "Const", "attr": {"value": {"tensor": {"dtype": "DT_FLOAT", "tensorShape": {"dim": [{"size": "1"}, {"size": "1"}, {"size": "512"}, {"size": "2048"}]}}}, "dtype": {"type": "DT_FLOAT"}}}, {"name": "resnet_v1_50/block4/unit_1/bottleneck_v1/conv2/Conv2D_bias", "op": "Const", "attr": {"value": {"tensor": {"dtype": "DT_FLOAT", "tensorShape": {"dim": [{"size": "512"}]}}}, "dtype": {"type": "DT_FLOAT"}}}, {"name": "resnet_v1_50/block4/unit_1/bottleneck_v1/conv2/weights", "op": "Const", "attr": {"value": {"tensor": {"dtype": "DT_FLOAT", "tensorShape": {"dim": [{"size": "3"}, {"size": "3"}, {"size": "512"}, {"size": "512"}]}}}, "dtype": {"type": "DT_FLOAT"}}}, {"name": "resnet_v1_50/block4/unit_1/bottleneck_v1/conv1/Conv2D_bias", "op": "Const", "attr": {"value": {"tensor": {"dtype": "DT_FLOAT", "tensorShape": {"dim": [{"size": "512"}]}}}, "dtype": {"type": "DT_FLOAT"}}}, {"name": "resnet_v1_50/block4/unit_1/bottleneck_v1/conv1/weights", "op": "Const", "attr": {"value": {"tensor": {"dtype": "DT_FLOAT", "tensorShape": {"dim": [{"size": "1"}, {"size": "1"}, {"size": "1024"}, {"size": "512"}]}}}, "dtype": {"type": "DT_FLOAT"}}}, {"name": "resnet_v1_50/displacement_bwd_2/Conv2D_bias", "op": "Const", "attr": {"value": {"tensor": {"dtype": "DT_FLOAT", "tensorShape": {"dim": [{"size": "32"}]}}}, "dtype": {"type": "DT_FLOAT"}}}, {"name": "resnet_v1_50/displacement_bwd_2/weights", "op": "Const", "attr": {"dtype": {"type": "DT_FLOAT"}, "value": {"tensor": {"dtype": "DT_FLOAT", "tensorShape": {"dim": [{"size": "1"}, {"size": "1"}, {"size": "2048"}, {"size": "32"}]}}}}}, {"name": "resnet_v1_50/offset_2/Conv2D_bias", "op": "Const", "attr": {"value": {"tensor": {"dtype": "DT_FLOAT", "tensorShape": {"dim": [{"size": "34"}]}}}, "dtype": {"type": "DT_FLOAT"}}}, {"name": "resnet_v1_50/offset_2/weights", "op": "Const", "attr": {"value": {"tensor": {"dtype": "DT_FLOAT", "tensorShape": {"dim": [{"size": "1"}, {"size": "1"}, {"size": "2048"}, {"size": "34"}]}}}, "dtype": {"type": "DT_FLOAT"}}}, {"name": "resnet_v1_50/heatmap_2/Conv2D_bias", "op": "Const", "attr": {"value": {"tensor": {"dtype": "DT_FLOAT", "tensorShape": {"dim": [{"size": "17"}]}}}, "dtype": {"type": "DT_FLOAT"}}}, {"name": "resnet_v1_50/heatmap_2/weights", "op": "Const", "attr": {"value": {"tensor": {"dtype": "DT_FLOAT", "tensorShape": {"dim": [{"size": "1"}, {"size": "1"}, {"size": "2048"}, {"size": "17"}]}}}, "dtype": {"type": "DT_FLOAT"}}}, {"name": "resnet_v1_50/Pad", "op": "Pad", "input": ["sub_2", "resnet_v1_50/Pad/paddings"], "attr": {"T": {"type": "DT_FLOAT"}, "Tpaddings": {"type": "DT_INT32"}}}, {"name": "resnet_v1_50/conv1/BatchNorm/batchnorm_1/add_1/conv", "op": "Conv2D", "input": ["resnet_v1_50/Pad", "resnet_v1_50/conv1/weights"], "attr": {"padding": {"s": "VkFMSUQ="}, "dilations": {"list": {"i": ["1", "1", "1", "1"]}}, "T": {"type": "DT_FLOAT"}, "strides": {"list": {"i": ["1", "2", "2", "1"]}}, "data_format": {"s": "TkhXQw=="}, "use_cudnn_on_gpu": {"b": true}, "explicit_paddings": {"list": {}}}}, {"name": "resnet_v1_50/conv1/BatchNorm/batchnorm_1/add_1", "op": "BiasAdd", "input": ["resnet_v1_50/conv1/BatchNorm/batchnorm_1/add_1/conv", "resnet_v1_50/conv1/Conv2D_bias"], "attr": {"T": {"type": "DT_FLOAT"}, "data_format": {"s": "TkhXQw=="}}}, {"name": "resnet_v1_50/conv1/Relu", "op": "Relu", "input": ["resnet_v1_50/conv1/BatchNorm/batchnorm_1/add_1"], "attr": {"T": {"type": "DT_FLOAT"}}}, {"name": "resnet_v1_50/Pad_1", "op": "Pad", "input": ["resnet_v1_50/conv1/Relu", "resnet_v1_50/Pad_1/paddings"], "attr": {"T": {"type": "DT_FLOAT"}, "Tpaddings": {"type": "DT_INT32"}}}, {"name": "resnet_v1_50/pool1/MaxPool", "op": "MaxPool", "input": ["resnet_v1_50/Pad_1"], "attr": {"ksize": {"list": {"i": ["1", "3", "3", "1"]}}, "padding": {"s": "VkFMSUQ="}, "T": {"type": "DT_FLOAT"}, "data_format": {"s": "TkhXQw=="}, "strides": {"list": {"i": ["1", "2", "2", "1"]}}}}, {"name": "resnet_v1_50/block1/unit_1/bottleneck_v1/shortcut/BatchNorm/batchnorm_1/add_1/conv", "op": "Conv2D", "input": ["resnet_v1_50/pool1/MaxPool", "resnet_v1_50/block1/unit_1/bottleneck_v1/shortcut/weights"], "attr": {"dilations": {"list": {"i": ["1", "1", "1", "1"]}}, "T": {"type": "DT_FLOAT"}, "data_format": {"s": "TkhXQw=="}, "strides": {"list": {"i": ["1", "1", "1", "1"]}}, "explicit_paddings": {"list": {}}, "use_cudnn_on_gpu": {"b": true}, "padding": {"s": "U0FNRQ=="}}}, {"name": "resnet_v1_50/block1/unit_1/bottleneck_v1/conv1/BatchNorm/batchnorm_1/add_1/conv", "op": "Conv2D", "input": ["resnet_v1_50/pool1/MaxPool", "resnet_v1_50/block1/unit_1/bottleneck_v1/conv1/weights"], "attr": {"use_cudnn_on_gpu": {"b": true}, "explicit_paddings": {"list": {}}, "padding": {"s": "U0FNRQ=="}, "dilations": {"list": {"i": ["1", "1", "1", "1"]}}, "T": {"type": "DT_FLOAT"}, "data_format": {"s": "TkhXQw=="}, "strides": {"list": {"i": ["1", "1", "1", "1"]}}}}, {"name": "resnet_v1_50/block1/unit_1/bottleneck_v1/shortcut/BatchNorm/batchnorm_1/add_1", "op": "BiasAdd", "input": ["resnet_v1_50/block1/unit_1/bottleneck_v1/shortcut/BatchNorm/batchnorm_1/add_1/conv", "resnet_v1_50/block1/unit_1/bottleneck_v1/shortcut/Conv2D_bias"], "attr": {"T": {"type": "DT_FLOAT"}, "data_format": {"s": "TkhXQw=="}}}, {"name": "resnet_v1_50/block1/unit_1/bottleneck_v1/conv1/BatchNorm/batchnorm_1/add_1", "op": "BiasAdd", "input": ["resnet_v1_50/block1/unit_1/bottleneck_v1/conv1/BatchNorm/batchnorm_1/add_1/conv", "resnet_v1_50/block1/unit_1/bottleneck_v1/conv1/Conv2D_bias"], "attr": {"T": {"type": "DT_FLOAT"}, "data_format": {"s": "TkhXQw=="}}}, {"name": "resnet_v1_50/block1/unit_1/bottleneck_v1/conv1/Relu", "op": "Relu", "input": ["resnet_v1_50/block1/unit_1/bottleneck_v1/conv1/BatchNorm/batchnorm_1/add_1"], "attr": {"T": {"type": "DT_FLOAT"}}}, {"name": "resnet_v1_50/block1/unit_1/bottleneck_v1/conv2/BatchNorm/batchnorm_1/add_1/conv", "op": "Conv2D", "input": ["resnet_v1_50/block1/unit_1/bottleneck_v1/conv1/Relu", "resnet_v1_50/block1/unit_1/bottleneck_v1/conv2/weights"], "attr": {"explicit_paddings": {"list": {}}, "use_cudnn_on_gpu": {"b": true}, "padding": {"s": "U0FNRQ=="}, "dilations": {"list": {"i": ["1", "1", "1", "1"]}}, "T": {"type": "DT_FLOAT"}, "strides": {"list": {"i": ["1", "1", "1", "1"]}}, "data_format": {"s": "TkhXQw=="}}}, {"name": "resnet_v1_50/block1/unit_1/bottleneck_v1/conv2/BatchNorm/batchnorm_1/add_1", "op": "BiasAdd", "input": ["resnet_v1_50/block1/unit_1/bottleneck_v1/conv2/BatchNorm/batchnorm_1/add_1/conv", "resnet_v1_50/block1/unit_1/bottleneck_v1/conv2/Conv2D_bias"], "attr": {"data_format": {"s": "TkhXQw=="}, "T": {"type": "DT_FLOAT"}}}, {"name": "resnet_v1_50/block1/unit_1/bottleneck_v1/conv2/Relu", "op": "Relu", "input": ["resnet_v1_50/block1/unit_1/bottleneck_v1/conv2/BatchNorm/batchnorm_1/add_1"], "attr": {"T": {"type": "DT_FLOAT"}}}, {"name": "resnet_v1_50/block1/unit_1/bottleneck_v1/conv3/BatchNorm/batchnorm_1/add_1/conv", "op": "Conv2D", "input": ["resnet_v1_50/block1/unit_1/bottleneck_v1/conv2/Relu", "resnet_v1_50/block1/unit_1/bottleneck_v1/conv3/weights"], "attr": {"data_format": {"s": "TkhXQw=="}, "strides": {"list": {"i": ["1", "1", "1", "1"]}}, "explicit_paddings": {"list": {}}, "use_cudnn_on_gpu": {"b": true}, "padding": {"s": "U0FNRQ=="}, "dilations": {"list": {"i": ["1", "1", "1", "1"]}}, "T": {"type": "DT_FLOAT"}}}, {"name": "resnet_v1_50/block1/unit_1/bottleneck_v1/conv3/BatchNorm/batchnorm_1/add_1", "op": "BiasAdd", "input": ["resnet_v1_50/block1/unit_1/bottleneck_v1/conv3/BatchNorm/batchnorm_1/add_1/conv", "resnet_v1_50/block1/unit_1/bottleneck_v1/conv3/Conv2D_bias"], "attr": {"data_format": {"s": "TkhXQw=="}, "T": {"type": "DT_FLOAT"}}}, {"name": "resnet_v1_50/block1/unit_1/bottleneck_v1/add", "op": "Add", "input": ["resnet_v1_50/block1/unit_1/bottleneck_v1/conv3/BatchNorm/batchnorm_1/add_1", "resnet_v1_50/block1/unit_1/bottleneck_v1/shortcut/BatchNorm/batchnorm_1/add_1"], "attr": {"T": {"type": "DT_FLOAT"}}}, {"name": "resnet_v1_50/block1/unit_1/bottleneck_v1/Relu", "op": "Relu", "input": ["resnet_v1_50/block1/unit_1/bottleneck_v1/add"], "attr": {"T": {"type": "DT_FLOAT"}}}, {"name": "resnet_v1_50/block1/unit_2/bottleneck_v1/conv1/BatchNorm/batchnorm_1/add_1/conv", "op": "Conv2D", "input": ["resnet_v1_50/block1/unit_1/bottleneck_v1/Relu", "resnet_v1_50/block1/unit_2/bottleneck_v1/conv1/weights"], "attr": {"dilations": {"list": {"i": ["1", "1", "1", "1"]}}, "T": {"type": "DT_FLOAT"}, "data_format": {"s": "TkhXQw=="}, "strides": {"list": {"i": ["1", "1", "1", "1"]}}, "explicit_paddings": {"list": {}}, "use_cudnn_on_gpu": {"b": true}, "padding": {"s": "U0FNRQ=="}}}, {"name": "resnet_v1_50/block1/unit_2/bottleneck_v1/conv1/BatchNorm/batchnorm_1/add_1", "op": "BiasAdd", "input": ["resnet_v1_50/block1/unit_2/bottleneck_v1/conv1/BatchNorm/batchnorm_1/add_1/conv", "resnet_v1_50/block1/unit_2/bottleneck_v1/conv1/Conv2D_bias"], "attr": {"data_format": {"s": "TkhXQw=="}, "T": {"type": "DT_FLOAT"}}}, {"name": "resnet_v1_50/block1/unit_2/bottleneck_v1/conv1/Relu", "op": "Relu", "input": ["resnet_v1_50/block1/unit_2/bottleneck_v1/conv1/BatchNorm/batchnorm_1/add_1"], "attr": {"T": {"type": "DT_FLOAT"}}}, {"name": "resnet_v1_50/block1/unit_2/bottleneck_v1/conv2/BatchNorm/batchnorm_1/add_1/conv", "op": "Conv2D", "input": ["resnet_v1_50/block1/unit_2/bottleneck_v1/conv1/Relu", "resnet_v1_50/block1/unit_2/bottleneck_v1/conv2/weights"], "attr": {"strides": {"list": {"i": ["1", "1", "1", "1"]}}, "data_format": {"s": "TkhXQw=="}, "use_cudnn_on_gpu": {"b": true}, "explicit_paddings": {"list": {}}, "padding": {"s": "U0FNRQ=="}, "dilations": {"list": {"i": ["1", "1", "1", "1"]}}, "T": {"type": "DT_FLOAT"}}}, {"name": "resnet_v1_50/block1/unit_2/bottleneck_v1/conv2/BatchNorm/batchnorm_1/add_1", "op": "BiasAdd", "input": ["resnet_v1_50/block1/unit_2/bottleneck_v1/conv2/BatchNorm/batchnorm_1/add_1/conv", "resnet_v1_50/block1/unit_2/bottleneck_v1/conv2/Conv2D_bias"], "attr": {"T": {"type": "DT_FLOAT"}, "data_format": {"s": "TkhXQw=="}}}, {"name": "resnet_v1_50/block1/unit_2/bottleneck_v1/conv2/Relu", "op": "Relu", "input": ["resnet_v1_50/block1/unit_2/bottleneck_v1/conv2/BatchNorm/batchnorm_1/add_1"], "attr": {"T": {"type": "DT_FLOAT"}}}, {"name": "resnet_v1_50/block1/unit_2/bottleneck_v1/conv3/BatchNorm/batchnorm_1/add_1/conv", "op": "Conv2D", "input": ["resnet_v1_50/block1/unit_2/bottleneck_v1/conv2/Relu", "resnet_v1_50/block1/unit_2/bottleneck_v1/conv3/weights"], "attr": {"strides": {"list": {"i": ["1", "1", "1", "1"]}}, "data_format": {"s": "TkhXQw=="}, "use_cudnn_on_gpu": {"b": true}, "explicit_paddings": {"list": {}}, "padding": {"s": "U0FNRQ=="}, "dilations": {"list": {"i": ["1", "1", "1", "1"]}}, "T": {"type": "DT_FLOAT"}}}, {"name": "resnet_v1_50/block1/unit_2/bottleneck_v1/conv3/BatchNorm/batchnorm_1/add_1", "op": "BiasAdd", "input": ["resnet_v1_50/block1/unit_2/bottleneck_v1/conv3/BatchNorm/batchnorm_1/add_1/conv", "resnet_v1_50/block1/unit_2/bottleneck_v1/conv3/Conv2D_bias"], "attr": {"T": {"type": "DT_FLOAT"}, "data_format": {"s": "TkhXQw=="}}}, {"name": "resnet_v1_50/block1/unit_2/bottleneck_v1/add", "op": "Add", "input": ["resnet_v1_50/block1/unit_1/bottleneck_v1/Relu", "resnet_v1_50/block1/unit_2/bottleneck_v1/conv3/BatchNorm/batchnorm_1/add_1"], "attr": {"T": {"type": "DT_FLOAT"}}}, {"name": "resnet_v1_50/block1/unit_2/bottleneck_v1/Relu", "op": "Relu", "input": ["resnet_v1_50/block1/unit_2/bottleneck_v1/add"], "attr": {"T": {"type": "DT_FLOAT"}}}, {"name": "resnet_v1_50/block1/unit_3/bottleneck_v1/shortcut/MaxPool", "op": "MaxPool", "input": ["resnet_v1_50/block1/unit_2/bottleneck_v1/Relu"], "attr": {"T": {"type": "DT_FLOAT"}, "strides": {"list": {"i": ["1", "2", "2", "1"]}}, "data_format": {"s": "TkhXQw=="}, "ksize": {"list": {"i": ["1", "1", "1", "1"]}}, "padding": {"s": "U0FNRQ=="}}}, {"name": "resnet_v1_50/block1/unit_3/bottleneck_v1/conv1/BatchNorm/batchnorm_1/add_1/conv", "op": "Conv2D", "input": ["resnet_v1_50/block1/unit_2/bottleneck_v1/Relu", "resnet_v1_50/block1/unit_3/bottleneck_v1/conv1/weights"], "attr": {"dilations": {"list": {"i": ["1", "1", "1", "1"]}}, "T": {"type": "DT_FLOAT"}, "data_format": {"s": "TkhXQw=="}, "strides": {"list": {"i": ["1", "1", "1", "1"]}}, "explicit_paddings": {"list": {}}, "use_cudnn_on_gpu": {"b": true}, "padding": {"s": "U0FNRQ=="}}}, {"name": "resnet_v1_50/block1/unit_3/bottleneck_v1/conv1/BatchNorm/batchnorm_1/add_1", "op": "BiasAdd", "input": ["resnet_v1_50/block1/unit_3/bottleneck_v1/conv1/BatchNorm/batchnorm_1/add_1/conv", "resnet_v1_50/block1/unit_3/bottleneck_v1/conv1/Conv2D_bias"], "attr": {"T": {"type": "DT_FLOAT"}, "data_format": {"s": "TkhXQw=="}}}, {"name": "resnet_v1_50/block1/unit_3/bottleneck_v1/conv1/Relu", "op": "Relu", "input": ["resnet_v1_50/block1/unit_3/bottleneck_v1/conv1/BatchNorm/batchnorm_1/add_1"], "attr": {"T": {"type": "DT_FLOAT"}}}, {"name": "resnet_v1_50/block1/unit_3/bottleneck_v1/Pad", "op": "Pad", "input": ["resnet_v1_50/block1/unit_3/bottleneck_v1/conv1/Relu", "resnet_v1_50/Pad_1/paddings"], "attr": {"T": {"type": "DT_FLOAT"}, "Tpaddings": {"type": "DT_INT32"}}}, {"name": "resnet_v1_50/block1/unit_3/bottleneck_v1/conv2/BatchNorm/batchnorm_1/add_1/conv", "op": "Conv2D", "input": ["resnet_v1_50/block1/unit_3/bottleneck_v1/Pad", "resnet_v1_50/block1/unit_3/bottleneck_v1/conv2/weights"], "attr": {"T": {"type": "DT_FLOAT"}, "data_format": {"s": "TkhXQw=="}, "strides": {"list": {"i": ["1", "2", "2", "1"]}}, "explicit_paddings": {"list": {}}, "use_cudnn_on_gpu": {"b": true}, "padding": {"s": "VkFMSUQ="}, "dilations": {"list": {"i": ["1", "1", "1", "1"]}}}}, {"name": "resnet_v1_50/block1/unit_3/bottleneck_v1/conv2/BatchNorm/batchnorm_1/add_1", "op": "BiasAdd", "input": ["resnet_v1_50/block1/unit_3/bottleneck_v1/conv2/BatchNorm/batchnorm_1/add_1/conv", "resnet_v1_50/block1/unit_3/bottleneck_v1/conv2/Conv2D_bias"], "attr": {"data_format": {"s": "TkhXQw=="}, "T": {"type": "DT_FLOAT"}}}, {"name": "resnet_v1_50/block1/unit_3/bottleneck_v1/conv2/Relu", "op": "Relu", "input": ["resnet_v1_50/block1/unit_3/bottleneck_v1/conv2/BatchNorm/batchnorm_1/add_1"], "attr": {"T": {"type": "DT_FLOAT"}}}, {"name": "resnet_v1_50/block1/unit_3/bottleneck_v1/conv3/BatchNorm/batchnorm_1/add_1/conv", "op": "Conv2D", "input": ["resnet_v1_50/block1/unit_3/bottleneck_v1/conv2/Relu", "resnet_v1_50/block1/unit_3/bottleneck_v1/conv3/weights"], "attr": {"padding": {"s": "U0FNRQ=="}, "dilations": {"list": {"i": ["1", "1", "1", "1"]}}, "T": {"type": "DT_FLOAT"}, "data_format": {"s": "TkhXQw=="}, "strides": {"list": {"i": ["1", "1", "1", "1"]}}, "explicit_paddings": {"list": {}}, "use_cudnn_on_gpu": {"b": true}}}, {"name": "resnet_v1_50/block1/unit_3/bottleneck_v1/conv3/BatchNorm/batchnorm_1/add_1", "op": "BiasAdd", "input": ["resnet_v1_50/block1/unit_3/bottleneck_v1/conv3/BatchNorm/batchnorm_1/add_1/conv", "resnet_v1_50/block1/unit_3/bottleneck_v1/conv3/Conv2D_bias"], "attr": {"data_format": {"s": "TkhXQw=="}, "T": {"type": "DT_FLOAT"}}}, {"name": "resnet_v1_50/block1/unit_3/bottleneck_v1/add", "op": "Add", "input": ["resnet_v1_50/block1/unit_3/bottleneck_v1/conv3/BatchNorm/batchnorm_1/add_1", "resnet_v1_50/block1/unit_3/bottleneck_v1/shortcut/MaxPool"], "attr": {"T": {"type": "DT_FLOAT"}}}, {"name": "resnet_v1_50/block1/unit_3/bottleneck_v1/Relu", "op": "Relu", "input": ["resnet_v1_50/block1/unit_3/bottleneck_v1/add"], "attr": {"T": {"type": "DT_FLOAT"}}}, {"name": "resnet_v1_50/block2/unit_1/bottleneck_v1/shortcut/BatchNorm/batchnorm_1/add_1/conv", "op": "Conv2D", "input": ["resnet_v1_50/block1/unit_3/bottleneck_v1/Relu", "resnet_v1_50/block2/unit_1/bottleneck_v1/shortcut/weights"], "attr": {"dilations": {"list": {"i": ["1", "1", "1", "1"]}}, "T": {"type": "DT_FLOAT"}, "strides": {"list": {"i": ["1", "1", "1", "1"]}}, "data_format": {"s": "TkhXQw=="}, "use_cudnn_on_gpu": {"b": true}, "explicit_paddings": {"list": {}}, "padding": {"s": "U0FNRQ=="}}}, {"name": "resnet_v1_50/block2/unit_1/bottleneck_v1/conv1/BatchNorm/batchnorm_1/add_1/conv", "op": "Conv2D", "input": ["resnet_v1_50/block1/unit_3/bottleneck_v1/Relu", "resnet_v1_50/block2/unit_1/bottleneck_v1/conv1/weights"], "attr": {"dilations": {"list": {"i": ["1", "1", "1", "1"]}}, "T": {"type": "DT_FLOAT"}, "strides": {"list": {"i": ["1", "1", "1", "1"]}}, "data_format": {"s": "TkhXQw=="}, "explicit_paddings": {"list": {}}, "use_cudnn_on_gpu": {"b": true}, "padding": {"s": "U0FNRQ=="}}}, {"name": "resnet_v1_50/block2/unit_1/bottleneck_v1/shortcut/BatchNorm/batchnorm_1/add_1", "op": "BiasAdd", "input": ["resnet_v1_50/block2/unit_1/bottleneck_v1/shortcut/BatchNorm/batchnorm_1/add_1/conv", "resnet_v1_50/block2/unit_1/bottleneck_v1/shortcut/Conv2D_bias"], "attr": {"T": {"type": "DT_FLOAT"}, "data_format": {"s": "TkhXQw=="}}}, {"name": "resnet_v1_50/block2/unit_1/bottleneck_v1/conv1/BatchNorm/batchnorm_1/add_1", "op": "BiasAdd", "input": ["resnet_v1_50/block2/unit_1/bottleneck_v1/conv1/BatchNorm/batchnorm_1/add_1/conv", "resnet_v1_50/block2/unit_1/bottleneck_v1/conv1/Conv2D_bias"], "attr": {"T": {"type": "DT_FLOAT"}, "data_format": {"s": "TkhXQw=="}}}, {"name": "resnet_v1_50/block2/unit_1/bottleneck_v1/conv1/Relu", "op": "Relu", "input": ["resnet_v1_50/block2/unit_1/bottleneck_v1/conv1/BatchNorm/batchnorm_1/add_1"], "attr": {"T": {"type": "DT_FLOAT"}}}, {"name": "resnet_v1_50/block2/unit_1/bottleneck_v1/conv2/BatchNorm/batchnorm_1/add_1/conv", "op": "Conv2D", "input": ["resnet_v1_50/block2/unit_1/bottleneck_v1/conv1/Relu", "resnet_v1_50/block2/unit_1/bottleneck_v1/conv2/weights"], "attr": {"padding": {"s": "U0FNRQ=="}, "dilations": {"list": {"i": ["1", "1", "1", "1"]}}, "T": {"type": "DT_FLOAT"}, "data_format": {"s": "TkhXQw=="}, "strides": {"list": {"i": ["1", "1", "1", "1"]}}, "use_cudnn_on_gpu": {"b": true}, "explicit_paddings": {"list": {}}}}, {"name": "resnet_v1_50/block2/unit_1/bottleneck_v1/conv2/BatchNorm/batchnorm_1/add_1", "op": "BiasAdd", "input": ["resnet_v1_50/block2/unit_1/bottleneck_v1/conv2/BatchNorm/batchnorm_1/add_1/conv", "resnet_v1_50/block2/unit_1/bottleneck_v1/conv2/Conv2D_bias"], "attr": {"data_format": {"s": "TkhXQw=="}, "T": {"type": "DT_FLOAT"}}}, {"name": "resnet_v1_50/block2/unit_1/bottleneck_v1/conv2/Relu", "op": "Relu", "input": ["resnet_v1_50/block2/unit_1/bottleneck_v1/conv2/BatchNorm/batchnorm_1/add_1"], "attr": {"T": {"type": "DT_FLOAT"}}}, {"name": "resnet_v1_50/block2/unit_1/bottleneck_v1/conv3/BatchNorm/batchnorm_1/add_1/conv", "op": "Conv2D", "input": ["resnet_v1_50/block2/unit_1/bottleneck_v1/conv2/Relu", "resnet_v1_50/block2/unit_1/bottleneck_v1/conv3/weights"], "attr": {"dilations": {"list": {"i": ["1", "1", "1", "1"]}}, "T": {"type": "DT_FLOAT"}, "data_format": {"s": "TkhXQw=="}, "strides": {"list": {"i": ["1", "1", "1", "1"]}}, "explicit_paddings": {"list": {}}, "use_cudnn_on_gpu": {"b": true}, "padding": {"s": "U0FNRQ=="}}}, {"name": "resnet_v1_50/block2/unit_1/bottleneck_v1/conv3/BatchNorm/batchnorm_1/add_1", "op": "BiasAdd", "input": ["resnet_v1_50/block2/unit_1/bottleneck_v1/conv3/BatchNorm/batchnorm_1/add_1/conv", "resnet_v1_50/block2/unit_1/bottleneck_v1/conv3/Conv2D_bias"], "attr": {"T": {"type": "DT_FLOAT"}, "data_format": {"s": "TkhXQw=="}}}, {"name": "resnet_v1_50/block2/unit_1/bottleneck_v1/add", "op": "Add", "input": ["resnet_v1_50/block2/unit_1/bottleneck_v1/conv3/BatchNorm/batchnorm_1/add_1", "resnet_v1_50/block2/unit_1/bottleneck_v1/shortcut/BatchNorm/batchnorm_1/add_1"], "attr": {"T": {"type": "DT_FLOAT"}}}, {"name": "resnet_v1_50/block2/unit_1/bottleneck_v1/Relu", "op": "Relu", "input": ["resnet_v1_50/block2/unit_1/bottleneck_v1/add"], "attr": {"T": {"type": "DT_FLOAT"}}}, {"name": "resnet_v1_50/block2/unit_2/bottleneck_v1/conv1/BatchNorm/batchnorm_1/add_1/conv", "op": "Conv2D", "input": ["resnet_v1_50/block2/unit_1/bottleneck_v1/Relu", "resnet_v1_50/block2/unit_2/bottleneck_v1/conv1/weights"], "attr": {"dilations": {"list": {"i": ["1", "1", "1", "1"]}}, "T": {"type": "DT_FLOAT"}, "data_format": {"s": "TkhXQw=="}, "strides": {"list": {"i": ["1", "1", "1", "1"]}}, "explicit_paddings": {"list": {}}, "use_cudnn_on_gpu": {"b": true}, "padding": {"s": "U0FNRQ=="}}}, {"name": "resnet_v1_50/block2/unit_2/bottleneck_v1/conv1/BatchNorm/batchnorm_1/add_1", "op": "BiasAdd", "input": ["resnet_v1_50/block2/unit_2/bottleneck_v1/conv1/BatchNorm/batchnorm_1/add_1/conv", "resnet_v1_50/block2/unit_2/bottleneck_v1/conv1/Conv2D_bias"], "attr": {"data_format": {"s": "TkhXQw=="}, "T": {"type": "DT_FLOAT"}}}, {"name": "resnet_v1_50/block2/unit_2/bottleneck_v1/conv1/Relu", "op": "Relu", "input": ["resnet_v1_50/block2/unit_2/bottleneck_v1/conv1/BatchNorm/batchnorm_1/add_1"], "attr": {"T": {"type": "DT_FLOAT"}}}, {"name": "resnet_v1_50/block2/unit_2/bottleneck_v1/conv2/BatchNorm/batchnorm_1/add_1/conv", "op": "Conv2D", "input": ["resnet_v1_50/block2/unit_2/bottleneck_v1/conv1/Relu", "resnet_v1_50/block2/unit_2/bottleneck_v1/conv2/weights"], "attr": {"dilations": {"list": {"i": ["1", "1", "1", "1"]}}, "T": {"type": "DT_FLOAT"}, "data_format": {"s": "TkhXQw=="}, "strides": {"list": {"i": ["1", "1", "1", "1"]}}, "explicit_paddings": {"list": {}}, "use_cudnn_on_gpu": {"b": true}, "padding": {"s": "U0FNRQ=="}}}, {"name": "resnet_v1_50/block2/unit_2/bottleneck_v1/conv2/BatchNorm/batchnorm_1/add_1", "op": "BiasAdd", "input": ["resnet_v1_50/block2/unit_2/bottleneck_v1/conv2/BatchNorm/batchnorm_1/add_1/conv", "resnet_v1_50/block2/unit_2/bottleneck_v1/conv2/Conv2D_bias"], "attr": {"T": {"type": "DT_FLOAT"}, "data_format": {"s": "TkhXQw=="}}}, {"name": "resnet_v1_50/block2/unit_2/bottleneck_v1/conv2/Relu", "op": "Relu", "input": ["resnet_v1_50/block2/unit_2/bottleneck_v1/conv2/BatchNorm/batchnorm_1/add_1"], "attr": {"T": {"type": "DT_FLOAT"}}}, {"name": "resnet_v1_50/block2/unit_2/bottleneck_v1/conv3/BatchNorm/batchnorm_1/add_1/conv", "op": "Conv2D", "input": ["resnet_v1_50/block2/unit_2/bottleneck_v1/conv2/Relu", "resnet_v1_50/block2/unit_2/bottleneck_v1/conv3/weights"], "attr": {"explicit_paddings": {"list": {}}, "use_cudnn_on_gpu": {"b": true}, "padding": {"s": "U0FNRQ=="}, "dilations": {"list": {"i": ["1", "1", "1", "1"]}}, "T": {"type": "DT_FLOAT"}, "data_format": {"s": "TkhXQw=="}, "strides": {"list": {"i": ["1", "1", "1", "1"]}}}}, {"name": "resnet_v1_50/block2/unit_2/bottleneck_v1/conv3/BatchNorm/batchnorm_1/add_1", "op": "BiasAdd", "input": ["resnet_v1_50/block2/unit_2/bottleneck_v1/conv3/BatchNorm/batchnorm_1/add_1/conv", "resnet_v1_50/block2/unit_2/bottleneck_v1/conv3/Conv2D_bias"], "attr": {"T": {"type": "DT_FLOAT"}, "data_format": {"s": "TkhXQw=="}}}, {"name": "resnet_v1_50/block2/unit_2/bottleneck_v1/add", "op": "Add", "input": ["resnet_v1_50/block2/unit_1/bottleneck_v1/Relu", "resnet_v1_50/block2/unit_2/bottleneck_v1/conv3/BatchNorm/batchnorm_1/add_1"], "attr": {"T": {"type": "DT_FLOAT"}}}, {"name": "resnet_v1_50/block2/unit_2/bottleneck_v1/Relu", "op": "Relu", "input": ["resnet_v1_50/block2/unit_2/bottleneck_v1/add"], "attr": {"T": {"type": "DT_FLOAT"}}}, {"name": "resnet_v1_50/block2/unit_3/bottleneck_v1/conv1/BatchNorm/batchnorm_1/add_1/conv", "op": "Conv2D", "input": ["resnet_v1_50/block2/unit_2/bottleneck_v1/Relu", "resnet_v1_50/block2/unit_3/bottleneck_v1/conv1/weights"], "attr": {"T": {"type": "DT_FLOAT"}, "data_format": {"s": "TkhXQw=="}, "strides": {"list": {"i": ["1", "1", "1", "1"]}}, "use_cudnn_on_gpu": {"b": true}, "explicit_paddings": {"list": {}}, "padding": {"s": "U0FNRQ=="}, "dilations": {"list": {"i": ["1", "1", "1", "1"]}}}}, {"name": "resnet_v1_50/block2/unit_3/bottleneck_v1/conv1/BatchNorm/batchnorm_1/add_1", "op": "BiasAdd", "input": ["resnet_v1_50/block2/unit_3/bottleneck_v1/conv1/BatchNorm/batchnorm_1/add_1/conv", "resnet_v1_50/block2/unit_3/bottleneck_v1/conv1/Conv2D_bias"], "attr": {"data_format": {"s": "TkhXQw=="}, "T": {"type": "DT_FLOAT"}}}, {"name": "resnet_v1_50/block2/unit_3/bottleneck_v1/conv1/Relu", "op": "Relu", "input": ["resnet_v1_50/block2/unit_3/bottleneck_v1/conv1/BatchNorm/batchnorm_1/add_1"], "attr": {"T": {"type": "DT_FLOAT"}}}, {"name": "resnet_v1_50/block2/unit_3/bottleneck_v1/conv2/BatchNorm/batchnorm_1/add_1/conv", "op": "Conv2D", "input": ["resnet_v1_50/block2/unit_3/bottleneck_v1/conv1/Relu", "resnet_v1_50/block2/unit_3/bottleneck_v1/conv2/weights"], "attr": {"dilations": {"list": {"i": ["1", "1", "1", "1"]}}, "T": {"type": "DT_FLOAT"}, "strides": {"list": {"i": ["1", "1", "1", "1"]}}, "data_format": {"s": "TkhXQw=="}, "explicit_paddings": {"list": {}}, "use_cudnn_on_gpu": {"b": true}, "padding": {"s": "U0FNRQ=="}}}, {"name": "resnet_v1_50/block2/unit_3/bottleneck_v1/conv2/BatchNorm/batchnorm_1/add_1", "op": "BiasAdd", "input": ["resnet_v1_50/block2/unit_3/bottleneck_v1/conv2/BatchNorm/batchnorm_1/add_1/conv", "resnet_v1_50/block2/unit_3/bottleneck_v1/conv2/Conv2D_bias"], "attr": {"T": {"type": "DT_FLOAT"}, "data_format": {"s": "TkhXQw=="}}}, {"name": "resnet_v1_50/block2/unit_3/bottleneck_v1/conv2/Relu", "op": "Relu", "input": ["resnet_v1_50/block2/unit_3/bottleneck_v1/conv2/BatchNorm/batchnorm_1/add_1"], "attr": {"T": {"type": "DT_FLOAT"}}}, {"name": "resnet_v1_50/block2/unit_3/bottleneck_v1/conv3/BatchNorm/batchnorm_1/add_1/conv", "op": "Conv2D", "input": ["resnet_v1_50/block2/unit_3/bottleneck_v1/conv2/Relu", "resnet_v1_50/block2/unit_3/bottleneck_v1/conv3/weights"], "attr": {"padding": {"s": "U0FNRQ=="}, "dilations": {"list": {"i": ["1", "1", "1", "1"]}}, "T": {"type": "DT_FLOAT"}, "strides": {"list": {"i": ["1", "1", "1", "1"]}}, "data_format": {"s": "TkhXQw=="}, "use_cudnn_on_gpu": {"b": true}, "explicit_paddings": {"list": {}}}}, {"name": "resnet_v1_50/block2/unit_3/bottleneck_v1/conv3/BatchNorm/batchnorm_1/add_1", "op": "BiasAdd", "input": ["resnet_v1_50/block2/unit_3/bottleneck_v1/conv3/BatchNorm/batchnorm_1/add_1/conv", "resnet_v1_50/block2/unit_3/bottleneck_v1/conv3/Conv2D_bias"], "attr": {"T": {"type": "DT_FLOAT"}, "data_format": {"s": "TkhXQw=="}}}, {"name": "resnet_v1_50/block2/unit_3/bottleneck_v1/add", "op": "Add", "input": ["resnet_v1_50/block2/unit_2/bottleneck_v1/Relu", "resnet_v1_50/block2/unit_3/bottleneck_v1/conv3/BatchNorm/batchnorm_1/add_1"], "attr": {"T": {"type": "DT_FLOAT"}}}, {"name": "resnet_v1_50/block2/unit_3/bottleneck_v1/Relu", "op": "Relu", "input": ["resnet_v1_50/block2/unit_3/bottleneck_v1/add"], "attr": {"T": {"type": "DT_FLOAT"}}}, {"name": "resnet_v1_50/block2/unit_4/bottleneck_v1/shortcut/MaxPool", "op": "MaxPool", "input": ["resnet_v1_50/block2/unit_3/bottleneck_v1/Relu"], "attr": {"ksize": {"list": {"i": ["1", "1", "1", "1"]}}, "padding": {"s": "U0FNRQ=="}, "T": {"type": "DT_FLOAT"}, "strides": {"list": {"i": ["1", "2", "2", "1"]}}, "data_format": {"s": "TkhXQw=="}}}, {"name": "resnet_v1_50/block2/unit_4/bottleneck_v1/conv1/BatchNorm/batchnorm_1/add_1/conv", "op": "Conv2D", "input": ["resnet_v1_50/block2/unit_3/bottleneck_v1/Relu", "resnet_v1_50/block2/unit_4/bottleneck_v1/conv1/weights"], "attr": {"dilations": {"list": {"i": ["1", "1", "1", "1"]}}, "T": {"type": "DT_FLOAT"}, "data_format": {"s": "TkhXQw=="}, "strides": {"list": {"i": ["1", "1", "1", "1"]}}, "explicit_paddings": {"list": {}}, "use_cudnn_on_gpu": {"b": true}, "padding": {"s": "U0FNRQ=="}}}, {"name": "resnet_v1_50/block2/unit_4/bottleneck_v1/conv1/BatchNorm/batchnorm_1/add_1", "op": "BiasAdd", "input": ["resnet_v1_50/block2/unit_4/bottleneck_v1/conv1/BatchNorm/batchnorm_1/add_1/conv", "resnet_v1_50/block2/unit_4/bottleneck_v1/conv1/Conv2D_bias"], "attr": {"T": {"type": "DT_FLOAT"}, "data_format": {"s": "TkhXQw=="}}}, {"name": "resnet_v1_50/block2/unit_4/bottleneck_v1/conv1/Relu", "op": "Relu", "input": ["resnet_v1_50/block2/unit_4/bottleneck_v1/conv1/BatchNorm/batchnorm_1/add_1"], "attr": {"T": {"type": "DT_FLOAT"}}}, {"name": "resnet_v1_50/block2/unit_4/bottleneck_v1/Pad", "op": "Pad", "input": ["resnet_v1_50/block2/unit_4/bottleneck_v1/conv1/Relu", "resnet_v1_50/Pad_1/paddings"], "attr": {"T": {"type": "DT_FLOAT"}, "Tpaddings": {"type": "DT_INT32"}}}, {"name": "resnet_v1_50/block2/unit_4/bottleneck_v1/conv2/BatchNorm/batchnorm_1/add_1/conv", "op": "Conv2D", "input": ["resnet_v1_50/block2/unit_4/bottleneck_v1/Pad", "resnet_v1_50/block2/unit_4/bottleneck_v1/conv2/weights"], "attr": {"explicit_paddings": {"list": {}}, "use_cudnn_on_gpu": {"b": true}, "padding": {"s": "VkFMSUQ="}, "dilations": {"list": {"i": ["1", "1", "1", "1"]}}, "T": {"type": "DT_FLOAT"}, "strides": {"list": {"i": ["1", "2", "2", "1"]}}, "data_format": {"s": "TkhXQw=="}}}, {"name": "resnet_v1_50/block2/unit_4/bottleneck_v1/conv2/BatchNorm/batchnorm_1/add_1", "op": "BiasAdd", "input": ["resnet_v1_50/block2/unit_4/bottleneck_v1/conv2/BatchNorm/batchnorm_1/add_1/conv", "resnet_v1_50/block2/unit_4/bottleneck_v1/conv2/Conv2D_bias"], "attr": {"T": {"type": "DT_FLOAT"}, "data_format": {"s": "TkhXQw=="}}}, {"name": "resnet_v1_50/block2/unit_4/bottleneck_v1/conv2/Relu", "op": "Relu", "input": ["resnet_v1_50/block2/unit_4/bottleneck_v1/conv2/BatchNorm/batchnorm_1/add_1"], "attr": {"T": {"type": "DT_FLOAT"}}}, {"name": "resnet_v1_50/block2/unit_4/bottleneck_v1/conv3/BatchNorm/batchnorm_1/add_1/conv", "op": "Conv2D", "input": ["resnet_v1_50/block2/unit_4/bottleneck_v1/conv2/Relu", "resnet_v1_50/block2/unit_4/bottleneck_v1/conv3/weights"], "attr": {"padding": {"s": "U0FNRQ=="}, "dilations": {"list": {"i": ["1", "1", "1", "1"]}}, "T": {"type": "DT_FLOAT"}, "data_format": {"s": "TkhXQw=="}, "strides": {"list": {"i": ["1", "1", "1", "1"]}}, "use_cudnn_on_gpu": {"b": true}, "explicit_paddings": {"list": {}}}}, {"name": "resnet_v1_50/block2/unit_4/bottleneck_v1/conv3/BatchNorm/batchnorm_1/add_1", "op": "BiasAdd", "input": ["resnet_v1_50/block2/unit_4/bottleneck_v1/conv3/BatchNorm/batchnorm_1/add_1/conv", "resnet_v1_50/block2/unit_4/bottleneck_v1/conv3/Conv2D_bias"], "attr": {"data_format": {"s": "TkhXQw=="}, "T": {"type": "DT_FLOAT"}}}, {"name": "resnet_v1_50/block2/unit_4/bottleneck_v1/add", "op": "Add", "input": ["resnet_v1_50/block2/unit_4/bottleneck_v1/conv3/BatchNorm/batchnorm_1/add_1", "resnet_v1_50/block2/unit_4/bottleneck_v1/shortcut/MaxPool"], "attr": {"T": {"type": "DT_FLOAT"}}}, {"name": "resnet_v1_50/block2/unit_4/bottleneck_v1/Relu", "op": "Relu", "input": ["resnet_v1_50/block2/unit_4/bottleneck_v1/add"], "attr": {"T": {"type": "DT_FLOAT"}}}, {"name": "resnet_v1_50/block3/unit_1/bottleneck_v1/shortcut/BatchNorm/batchnorm_1/add_1/conv", "op": "Conv2D", "input": ["resnet_v1_50/block2/unit_4/bottleneck_v1/Relu", "resnet_v1_50/block3/unit_1/bottleneck_v1/shortcut/weights"], "attr": {"dilations": {"list": {"i": ["1", "1", "1", "1"]}}, "T": {"type": "DT_FLOAT"}, "data_format": {"s": "TkhXQw=="}, "strides": {"list": {"i": ["1", "1", "1", "1"]}}, "explicit_paddings": {"list": {}}, "use_cudnn_on_gpu": {"b": true}, "padding": {"s": "U0FNRQ=="}}}, {"name": "resnet_v1_50/block3/unit_1/bottleneck_v1/conv1/BatchNorm/batchnorm_1/add_1/conv", "op": "Conv2D", "input": ["resnet_v1_50/block2/unit_4/bottleneck_v1/Relu", "resnet_v1_50/block3/unit_1/bottleneck_v1/conv1/weights"], "attr": {"dilations": {"list": {"i": ["1", "1", "1", "1"]}}, "T": {"type": "DT_FLOAT"}, "strides": {"list": {"i": ["1", "1", "1", "1"]}}, "data_format": {"s": "TkhXQw=="}, "explicit_paddings": {"list": {}}, "use_cudnn_on_gpu": {"b": true}, "padding": {"s": "U0FNRQ=="}}}, {"name": "resnet_v1_50/block3/unit_1/bottleneck_v1/shortcut/BatchNorm/batchnorm_1/add_1", "op": "BiasAdd", "input": ["resnet_v1_50/block3/unit_1/bottleneck_v1/shortcut/BatchNorm/batchnorm_1/add_1/conv", "resnet_v1_50/block3/unit_1/bottleneck_v1/shortcut/Conv2D_bias"], "attr": {"T": {"type": "DT_FLOAT"}, "data_format": {"s": "TkhXQw=="}}}, {"name": "resnet_v1_50/block3/unit_1/bottleneck_v1/conv1/BatchNorm/batchnorm_1/add_1", "op": "BiasAdd", "input": ["resnet_v1_50/block3/unit_1/bottleneck_v1/conv1/BatchNorm/batchnorm_1/add_1/conv", "resnet_v1_50/block3/unit_1/bottleneck_v1/conv1/Conv2D_bias"], "attr": {"data_format": {"s": "TkhXQw=="}, "T": {"type": "DT_FLOAT"}}}, {"name": "resnet_v1_50/block3/unit_1/bottleneck_v1/conv1/Relu", "op": "Relu", "input": ["resnet_v1_50/block3/unit_1/bottleneck_v1/conv1/BatchNorm/batchnorm_1/add_1"], "attr": {"T": {"type": "DT_FLOAT"}}}, {"name": "resnet_v1_50/block3/unit_1/bottleneck_v1/conv2/BatchNorm/batchnorm_1/add_1/conv", "op": "Conv2D", "input": ["resnet_v1_50/block3/unit_1/bottleneck_v1/conv1/Relu", "resnet_v1_50/block3/unit_1/bottleneck_v1/conv2/weights"], "attr": {"dilations": {"list": {"i": ["1", "1", "1", "1"]}}, "T": {"type": "DT_FLOAT"}, "strides": {"list": {"i": ["1", "1", "1", "1"]}}, "data_format": {"s": "TkhXQw=="}, "use_cudnn_on_gpu": {"b": true}, "explicit_paddings": {"list": {}}, "padding": {"s": "U0FNRQ=="}}}, {"name": "resnet_v1_50/block3/unit_1/bottleneck_v1/conv2/BatchNorm/batchnorm_1/add_1", "op": "BiasAdd", "input": ["resnet_v1_50/block3/unit_1/bottleneck_v1/conv2/BatchNorm/batchnorm_1/add_1/conv", "resnet_v1_50/block3/unit_1/bottleneck_v1/conv2/Conv2D_bias"], "attr": {"T": {"type": "DT_FLOAT"}, "data_format": {"s": "TkhXQw=="}}}, {"name": "resnet_v1_50/block3/unit_1/bottleneck_v1/conv2/Relu", "op": "Relu", "input": ["resnet_v1_50/block3/unit_1/bottleneck_v1/conv2/BatchNorm/batchnorm_1/add_1"], "attr": {"T": {"type": "DT_FLOAT"}}}, {"name": "resnet_v1_50/block3/unit_1/bottleneck_v1/conv3/BatchNorm/batchnorm_1/add_1/conv", "op": "Conv2D", "input": ["resnet_v1_50/block3/unit_1/bottleneck_v1/conv2/Relu", "resnet_v1_50/block3/unit_1/bottleneck_v1/conv3/weights"], "attr": {"explicit_paddings": {"list": {}}, "use_cudnn_on_gpu": {"b": true}, "padding": {"s": "U0FNRQ=="}, "dilations": {"list": {"i": ["1", "1", "1", "1"]}}, "T": {"type": "DT_FLOAT"}, "data_format": {"s": "TkhXQw=="}, "strides": {"list": {"i": ["1", "1", "1", "1"]}}}}, {"name": "resnet_v1_50/block3/unit_1/bottleneck_v1/conv3/BatchNorm/batchnorm_1/add_1", "op": "BiasAdd", "input": ["resnet_v1_50/block3/unit_1/bottleneck_v1/conv3/BatchNorm/batchnorm_1/add_1/conv", "resnet_v1_50/block3/unit_1/bottleneck_v1/conv3/Conv2D_bias"], "attr": {"T": {"type": "DT_FLOAT"}, "data_format": {"s": "TkhXQw=="}}}, {"name": "resnet_v1_50/block3/unit_1/bottleneck_v1/add", "op": "Add", "input": ["resnet_v1_50/block3/unit_1/bottleneck_v1/conv3/BatchNorm/batchnorm_1/add_1", "resnet_v1_50/block3/unit_1/bottleneck_v1/shortcut/BatchNorm/batchnorm_1/add_1"], "attr": {"T": {"type": "DT_FLOAT"}}}, {"name": "resnet_v1_50/block3/unit_1/bottleneck_v1/Relu", "op": "Relu", "input": ["resnet_v1_50/block3/unit_1/bottleneck_v1/add"], "attr": {"T": {"type": "DT_FLOAT"}}}, {"name": "resnet_v1_50/block3/unit_2/bottleneck_v1/conv1/BatchNorm/batchnorm_1/add_1/conv", "op": "Conv2D", "input": ["resnet_v1_50/block3/unit_1/bottleneck_v1/Relu", "resnet_v1_50/block3/unit_2/bottleneck_v1/conv1/weights"], "attr": {"dilations": {"list": {"i": ["1", "1", "1", "1"]}}, "T": {"type": "DT_FLOAT"}, "data_format": {"s": "TkhXQw=="}, "strides": {"list": {"i": ["1", "1", "1", "1"]}}, "explicit_paddings": {"list": {}}, "use_cudnn_on_gpu": {"b": true}, "padding": {"s": "U0FNRQ=="}}}, {"name": "resnet_v1_50/block3/unit_2/bottleneck_v1/conv1/BatchNorm/batchnorm_1/add_1", "op": "BiasAdd", "input": ["resnet_v1_50/block3/unit_2/bottleneck_v1/conv1/BatchNorm/batchnorm_1/add_1/conv", "resnet_v1_50/block3/unit_2/bottleneck_v1/conv1/Conv2D_bias"], "attr": {"data_format": {"s": "TkhXQw=="}, "T": {"type": "DT_FLOAT"}}}, {"name": "resnet_v1_50/block3/unit_2/bottleneck_v1/conv1/Relu", "op": "Relu", "input": ["resnet_v1_50/block3/unit_2/bottleneck_v1/conv1/BatchNorm/batchnorm_1/add_1"], "attr": {"T": {"type": "DT_FLOAT"}}}, {"name": "resnet_v1_50/block3/unit_2/bottleneck_v1/conv2/BatchNorm/batchnorm_1/add_1/conv", "op": "Conv2D", "input": ["resnet_v1_50/block3/unit_2/bottleneck_v1/conv1/Relu", "resnet_v1_50/block3/unit_2/bottleneck_v1/conv2/weights"], "attr": {"dilations": {"list": {"i": ["1", "1", "1", "1"]}}, "T": {"type": "DT_FLOAT"}, "strides": {"list": {"i": ["1", "1", "1", "1"]}}, "data_format": {"s": "TkhXQw=="}, "use_cudnn_on_gpu": {"b": true}, "explicit_paddings": {"list": {}}, "padding": {"s": "U0FNRQ=="}}}, {"name": "resnet_v1_50/block3/unit_2/bottleneck_v1/conv2/BatchNorm/batchnorm_1/add_1", "op": "BiasAdd", "input": ["resnet_v1_50/block3/unit_2/bottleneck_v1/conv2/BatchNorm/batchnorm_1/add_1/conv", "resnet_v1_50/block3/unit_2/bottleneck_v1/conv2/Conv2D_bias"], "attr": {"T": {"type": "DT_FLOAT"}, "data_format": {"s": "TkhXQw=="}}}, {"name": "resnet_v1_50/block3/unit_2/bottleneck_v1/conv2/Relu", "op": "Relu", "input": ["resnet_v1_50/block3/unit_2/bottleneck_v1/conv2/BatchNorm/batchnorm_1/add_1"], "attr": {"T": {"type": "DT_FLOAT"}}}, {"name": "resnet_v1_50/block3/unit_2/bottleneck_v1/conv3/BatchNorm/batchnorm_1/add_1/conv", "op": "Conv2D", "input": ["resnet_v1_50/block3/unit_2/bottleneck_v1/conv2/Relu", "resnet_v1_50/block3/unit_2/bottleneck_v1/conv3/weights"], "attr": {"explicit_paddings": {"list": {}}, "use_cudnn_on_gpu": {"b": true}, "padding": {"s": "U0FNRQ=="}, "dilations": {"list": {"i": ["1", "1", "1", "1"]}}, "T": {"type": "DT_FLOAT"}, "data_format": {"s": "TkhXQw=="}, "strides": {"list": {"i": ["1", "1", "1", "1"]}}}}, {"name": "resnet_v1_50/block3/unit_2/bottleneck_v1/conv3/BatchNorm/batchnorm_1/add_1", "op": "BiasAdd", "input": ["resnet_v1_50/block3/unit_2/bottleneck_v1/conv3/BatchNorm/batchnorm_1/add_1/conv", "resnet_v1_50/block3/unit_2/bottleneck_v1/conv3/Conv2D_bias"], "attr": {"data_format": {"s": "TkhXQw=="}, "T": {"type": "DT_FLOAT"}}}, {"name": "resnet_v1_50/block3/unit_2/bottleneck_v1/add", "op": "Add", "input": ["resnet_v1_50/block3/unit_1/bottleneck_v1/Relu", "resnet_v1_50/block3/unit_2/bottleneck_v1/conv3/BatchNorm/batchnorm_1/add_1"], "attr": {"T": {"type": "DT_FLOAT"}}}, {"name": "resnet_v1_50/block3/unit_2/bottleneck_v1/Relu", "op": "Relu", "input": ["resnet_v1_50/block3/unit_2/bottleneck_v1/add"], "attr": {"T": {"type": "DT_FLOAT"}}}, {"name": "resnet_v1_50/block3/unit_3/bottleneck_v1/conv1/BatchNorm/batchnorm_1/add_1/conv", "op": "Conv2D", "input": ["resnet_v1_50/block3/unit_2/bottleneck_v1/Relu", "resnet_v1_50/block3/unit_3/bottleneck_v1/conv1/weights"], "attr": {"strides": {"list": {"i": ["1", "1", "1", "1"]}}, "data_format": {"s": "TkhXQw=="}, "use_cudnn_on_gpu": {"b": true}, "explicit_paddings": {"list": {}}, "padding": {"s": "U0FNRQ=="}, "dilations": {"list": {"i": ["1", "1", "1", "1"]}}, "T": {"type": "DT_FLOAT"}}}, {"name": "resnet_v1_50/block3/unit_3/bottleneck_v1/conv1/BatchNorm/batchnorm_1/add_1", "op": "BiasAdd", "input": ["resnet_v1_50/block3/unit_3/bottleneck_v1/conv1/BatchNorm/batchnorm_1/add_1/conv", "resnet_v1_50/block3/unit_3/bottleneck_v1/conv1/Conv2D_bias"], "attr": {"data_format": {"s": "TkhXQw=="}, "T": {"type": "DT_FLOAT"}}}, {"name": "resnet_v1_50/block3/unit_3/bottleneck_v1/conv1/Relu", "op": "Relu", "input": ["resnet_v1_50/block3/unit_3/bottleneck_v1/conv1/BatchNorm/batchnorm_1/add_1"], "attr": {"T": {"type": "DT_FLOAT"}}}, {"name": "resnet_v1_50/block3/unit_3/bottleneck_v1/conv2/BatchNorm/batchnorm_1/add_1/conv", "op": "Conv2D", "input": ["resnet_v1_50/block3/unit_3/bottleneck_v1/conv1/Relu", "resnet_v1_50/block3/unit_3/bottleneck_v1/conv2/weights"], "attr": {"padding": {"s": "U0FNRQ=="}, "dilations": {"list": {"i": ["1", "1", "1", "1"]}}, "T": {"type": "DT_FLOAT"}, "data_format": {"s": "TkhXQw=="}, "strides": {"list": {"i": ["1", "1", "1", "1"]}}, "explicit_paddings": {"list": {}}, "use_cudnn_on_gpu": {"b": true}}}, {"name": "resnet_v1_50/block3/unit_3/bottleneck_v1/conv2/BatchNorm/batchnorm_1/add_1", "op": "BiasAdd", "input": ["resnet_v1_50/block3/unit_3/bottleneck_v1/conv2/BatchNorm/batchnorm_1/add_1/conv", "resnet_v1_50/block3/unit_3/bottleneck_v1/conv2/Conv2D_bias"], "attr": {"T": {"type": "DT_FLOAT"}, "data_format": {"s": "TkhXQw=="}}}, {"name": "resnet_v1_50/block3/unit_3/bottleneck_v1/conv2/Relu", "op": "Relu", "input": ["resnet_v1_50/block3/unit_3/bottleneck_v1/conv2/BatchNorm/batchnorm_1/add_1"], "attr": {"T": {"type": "DT_FLOAT"}}}, {"name": "resnet_v1_50/block3/unit_3/bottleneck_v1/conv3/BatchNorm/batchnorm_1/add_1/conv", "op": "Conv2D", "input": ["resnet_v1_50/block3/unit_3/bottleneck_v1/conv2/Relu", "resnet_v1_50/block3/unit_3/bottleneck_v1/conv3/weights"], "attr": {"T": {"type": "DT_FLOAT"}, "strides": {"list": {"i": ["1", "1", "1", "1"]}}, "data_format": {"s": "TkhXQw=="}, "use_cudnn_on_gpu": {"b": true}, "explicit_paddings": {"list": {}}, "padding": {"s": "U0FNRQ=="}, "dilations": {"list": {"i": ["1", "1", "1", "1"]}}}}, {"name": "resnet_v1_50/block3/unit_3/bottleneck_v1/conv3/BatchNorm/batchnorm_1/add_1", "op": "BiasAdd", "input": ["resnet_v1_50/block3/unit_3/bottleneck_v1/conv3/BatchNorm/batchnorm_1/add_1/conv", "resnet_v1_50/block3/unit_3/bottleneck_v1/conv3/Conv2D_bias"], "attr": {"T": {"type": "DT_FLOAT"}, "data_format": {"s": "TkhXQw=="}}}, {"name": "resnet_v1_50/block3/unit_3/bottleneck_v1/add", "op": "Add", "input": ["resnet_v1_50/block3/unit_2/bottleneck_v1/Relu", "resnet_v1_50/block3/unit_3/bottleneck_v1/conv3/BatchNorm/batchnorm_1/add_1"], "attr": {"T": {"type": "DT_FLOAT"}}}, {"name": "resnet_v1_50/block3/unit_3/bottleneck_v1/Relu", "op": "Relu", "input": ["resnet_v1_50/block3/unit_3/bottleneck_v1/add"], "attr": {"T": {"type": "DT_FLOAT"}}}, {"name": "resnet_v1_50/block3/unit_4/bottleneck_v1/conv1/BatchNorm/batchnorm_1/add_1/conv", "op": "Conv2D", "input": ["resnet_v1_50/block3/unit_3/bottleneck_v1/Relu", "resnet_v1_50/block3/unit_4/bottleneck_v1/conv1/weights"], "attr": {"data_format": {"s": "TkhXQw=="}, "strides": {"list": {"i": ["1", "1", "1", "1"]}}, "use_cudnn_on_gpu": {"b": true}, "explicit_paddings": {"list": {}}, "padding": {"s": "U0FNRQ=="}, "dilations": {"list": {"i": ["1", "1", "1", "1"]}}, "T": {"type": "DT_FLOAT"}}}, {"name": "resnet_v1_50/block3/unit_4/bottleneck_v1/conv1/BatchNorm/batchnorm_1/add_1", "op": "BiasAdd", "input": ["resnet_v1_50/block3/unit_4/bottleneck_v1/conv1/BatchNorm/batchnorm_1/add_1/conv", "resnet_v1_50/block3/unit_4/bottleneck_v1/conv1/Conv2D_bias"], "attr": {"T": {"type": "DT_FLOAT"}, "data_format": {"s": "TkhXQw=="}}}, {"name": "resnet_v1_50/block3/unit_4/bottleneck_v1/conv1/Relu", "op": "Relu", "input": ["resnet_v1_50/block3/unit_4/bottleneck_v1/conv1/BatchNorm/batchnorm_1/add_1"], "attr": {"T": {"type": "DT_FLOAT"}}}, {"name": "resnet_v1_50/block3/unit_4/bottleneck_v1/conv2/BatchNorm/batchnorm_1/add_1/conv", "op": "Conv2D", "input": ["resnet_v1_50/block3/unit_4/bottleneck_v1/conv1/Relu", "resnet_v1_50/block3/unit_4/bottleneck_v1/conv2/weights"], "attr": {"padding": {"s": "U0FNRQ=="}, "dilations": {"list": {"i": ["1", "1", "1", "1"]}}, "T": {"type": "DT_FLOAT"}, "strides": {"list": {"i": ["1", "1", "1", "1"]}}, "data_format": {"s": "TkhXQw=="}, "use_cudnn_on_gpu": {"b": true}, "explicit_paddings": {"list": {}}}}, {"name": "resnet_v1_50/block3/unit_4/bottleneck_v1/conv2/BatchNorm/batchnorm_1/add_1", "op": "BiasAdd", "input": ["resnet_v1_50/block3/unit_4/bottleneck_v1/conv2/BatchNorm/batchnorm_1/add_1/conv", "resnet_v1_50/block3/unit_4/bottleneck_v1/conv2/Conv2D_bias"], "attr": {"T": {"type": "DT_FLOAT"}, "data_format": {"s": "TkhXQw=="}}}, {"name": "resnet_v1_50/block3/unit_4/bottleneck_v1/conv2/Relu", "op": "Relu", "input": ["resnet_v1_50/block3/unit_4/bottleneck_v1/conv2/BatchNorm/batchnorm_1/add_1"], "attr": {"T": {"type": "DT_FLOAT"}}}, {"name": "resnet_v1_50/block3/unit_4/bottleneck_v1/conv3/BatchNorm/batchnorm_1/add_1/conv", "op": "Conv2D", "input": ["resnet_v1_50/block3/unit_4/bottleneck_v1/conv2/Relu", "resnet_v1_50/block3/unit_4/bottleneck_v1/conv3/weights"], "attr": {"dilations": {"list": {"i": ["1", "1", "1", "1"]}}, "T": {"type": "DT_FLOAT"}, "data_format": {"s": "TkhXQw=="}, "strides": {"list": {"i": ["1", "1", "1", "1"]}}, "use_cudnn_on_gpu": {"b": true}, "explicit_paddings": {"list": {}}, "padding": {"s": "U0FNRQ=="}}}, {"name": "resnet_v1_50/block3/unit_4/bottleneck_v1/conv3/BatchNorm/batchnorm_1/add_1", "op": "BiasAdd", "input": ["resnet_v1_50/block3/unit_4/bottleneck_v1/conv3/BatchNorm/batchnorm_1/add_1/conv", "resnet_v1_50/block3/unit_4/bottleneck_v1/conv3/Conv2D_bias"], "attr": {"T": {"type": "DT_FLOAT"}, "data_format": {"s": "TkhXQw=="}}}, {"name": "resnet_v1_50/block3/unit_4/bottleneck_v1/add", "op": "Add", "input": ["resnet_v1_50/block3/unit_3/bottleneck_v1/Relu", "resnet_v1_50/block3/unit_4/bottleneck_v1/conv3/BatchNorm/batchnorm_1/add_1"], "attr": {"T": {"type": "DT_FLOAT"}}}, {"name": "resnet_v1_50/block3/unit_4/bottleneck_v1/Relu", "op": "Relu", "input": ["resnet_v1_50/block3/unit_4/bottleneck_v1/add"], "attr": {"T": {"type": "DT_FLOAT"}}}, {"name": "resnet_v1_50/block3/unit_5/bottleneck_v1/conv1/BatchNorm/batchnorm_1/add_1/conv", "op": "Conv2D", "input": ["resnet_v1_50/block3/unit_4/bottleneck_v1/Relu", "resnet_v1_50/block3/unit_5/bottleneck_v1/conv1/weights"], "attr": {"dilations": {"list": {"i": ["1", "1", "1", "1"]}}, "T": {"type": "DT_FLOAT"}, "data_format": {"s": "TkhXQw=="}, "strides": {"list": {"i": ["1", "1", "1", "1"]}}, "use_cudnn_on_gpu": {"b": true}, "explicit_paddings": {"list": {}}, "padding": {"s": "U0FNRQ=="}}}, {"name": "resnet_v1_50/block3/unit_5/bottleneck_v1/conv1/BatchNorm/batchnorm_1/add_1", "op": "BiasAdd", "input": ["resnet_v1_50/block3/unit_5/bottleneck_v1/conv1/BatchNorm/batchnorm_1/add_1/conv", "resnet_v1_50/block3/unit_5/bottleneck_v1/conv1/Conv2D_bias"], "attr": {"T": {"type": "DT_FLOAT"}, "data_format": {"s": "TkhXQw=="}}}, {"name": "resnet_v1_50/block3/unit_5/bottleneck_v1/conv1/Relu", "op": "Relu", "input": ["resnet_v1_50/block3/unit_5/bottleneck_v1/conv1/BatchNorm/batchnorm_1/add_1"], "attr": {"T": {"type": "DT_FLOAT"}}}, {"name": "resnet_v1_50/block3/unit_5/bottleneck_v1/conv2/BatchNorm/batchnorm_1/add_1/conv", "op": "Conv2D", "input": ["resnet_v1_50/block3/unit_5/bottleneck_v1/conv1/Relu", "resnet_v1_50/block3/unit_5/bottleneck_v1/conv2/weights"], "attr": {"dilations": {"list": {"i": ["1", "1", "1", "1"]}}, "T": {"type": "DT_FLOAT"}, "strides": {"list": {"i": ["1", "1", "1", "1"]}}, "data_format": {"s": "TkhXQw=="}, "explicit_paddings": {"list": {}}, "use_cudnn_on_gpu": {"b": true}, "padding": {"s": "U0FNRQ=="}}}, {"name": "resnet_v1_50/block3/unit_5/bottleneck_v1/conv2/BatchNorm/batchnorm_1/add_1", "op": "BiasAdd", "input": ["resnet_v1_50/block3/unit_5/bottleneck_v1/conv2/BatchNorm/batchnorm_1/add_1/conv", "resnet_v1_50/block3/unit_5/bottleneck_v1/conv2/Conv2D_bias"], "attr": {"data_format": {"s": "TkhXQw=="}, "T": {"type": "DT_FLOAT"}}}, {"name": "resnet_v1_50/block3/unit_5/bottleneck_v1/conv2/Relu", "op": "Relu", "input": ["resnet_v1_50/block3/unit_5/bottleneck_v1/conv2/BatchNorm/batchnorm_1/add_1"], "attr": {"T": {"type": "DT_FLOAT"}}}, {"name": "resnet_v1_50/block3/unit_5/bottleneck_v1/conv3/BatchNorm/batchnorm_1/add_1/conv", "op": "Conv2D", "input": ["resnet_v1_50/block3/unit_5/bottleneck_v1/conv2/Relu", "resnet_v1_50/block3/unit_5/bottleneck_v1/conv3/weights"], "attr": {"dilations": {"list": {"i": ["1", "1", "1", "1"]}}, "T": {"type": "DT_FLOAT"}, "strides": {"list": {"i": ["1", "1", "1", "1"]}}, "data_format": {"s": "TkhXQw=="}, "explicit_paddings": {"list": {}}, "use_cudnn_on_gpu": {"b": true}, "padding": {"s": "U0FNRQ=="}}}, {"name": "resnet_v1_50/block3/unit_5/bottleneck_v1/conv3/BatchNorm/batchnorm_1/add_1", "op": "BiasAdd", "input": ["resnet_v1_50/block3/unit_5/bottleneck_v1/conv3/BatchNorm/batchnorm_1/add_1/conv", "resnet_v1_50/block3/unit_5/bottleneck_v1/conv3/Conv2D_bias"], "attr": {"T": {"type": "DT_FLOAT"}, "data_format": {"s": "TkhXQw=="}}}, {"name": "resnet_v1_50/block3/unit_5/bottleneck_v1/add", "op": "Add", "input": ["resnet_v1_50/block3/unit_4/bottleneck_v1/Relu", "resnet_v1_50/block3/unit_5/bottleneck_v1/conv3/BatchNorm/batchnorm_1/add_1"], "attr": {"T": {"type": "DT_FLOAT"}}}, {"name": "resnet_v1_50/block3/unit_5/bottleneck_v1/Relu", "op": "Relu", "input": ["resnet_v1_50/block3/unit_5/bottleneck_v1/add"], "attr": {"T": {"type": "DT_FLOAT"}}}, {"name": "resnet_v1_50/block3/unit_6/bottleneck_v1/shortcut/MaxPool", "op": "MaxPool", "input": ["resnet_v1_50/block3/unit_5/bottleneck_v1/Relu"], "attr": {"T": {"type": "DT_FLOAT"}, "strides": {"list": {"i": ["1", "2", "2", "1"]}}, "data_format": {"s": "TkhXQw=="}, "ksize": {"list": {"i": ["1", "1", "1", "1"]}}, "padding": {"s": "U0FNRQ=="}}}, {"name": "resnet_v1_50/block3/unit_6/bottleneck_v1/conv1/BatchNorm/batchnorm_1/add_1/conv", "op": "Conv2D", "input": ["resnet_v1_50/block3/unit_5/bottleneck_v1/Relu", "resnet_v1_50/block3/unit_6/bottleneck_v1/conv1/weights"], "attr": {"dilations": {"list": {"i": ["1", "1", "1", "1"]}}, "T": {"type": "DT_FLOAT"}, "data_format": {"s": "TkhXQw=="}, "strides": {"list": {"i": ["1", "1", "1", "1"]}}, "use_cudnn_on_gpu": {"b": true}, "explicit_paddings": {"list": {}}, "padding": {"s": "U0FNRQ=="}}}, {"name": "resnet_v1_50/block3/unit_6/bottleneck_v1/conv1/BatchNorm/batchnorm_1/add_1", "op": "BiasAdd", "input": ["resnet_v1_50/block3/unit_6/bottleneck_v1/conv1/BatchNorm/batchnorm_1/add_1/conv", "resnet_v1_50/block3/unit_6/bottleneck_v1/conv1/Conv2D_bias"], "attr": {"T": {"type": "DT_FLOAT"}, "data_format": {"s": "TkhXQw=="}}}, {"name": "resnet_v1_50/block3/unit_6/bottleneck_v1/conv1/Relu", "op": "Relu", "input": ["resnet_v1_50/block3/unit_6/bottleneck_v1/conv1/BatchNorm/batchnorm_1/add_1"], "attr": {"T": {"type": "DT_FLOAT"}}}, {"name": "resnet_v1_50/block3/unit_6/bottleneck_v1/Pad", "op": "Pad", "input": ["resnet_v1_50/block3/unit_6/bottleneck_v1/conv1/Relu", "resnet_v1_50/Pad_1/paddings"], "attr": {"Tpaddings": {"type": "DT_INT32"}, "T": {"type": "DT_FLOAT"}}}, {"name": "resnet_v1_50/block3/unit_6/bottleneck_v1/conv2/BatchNorm/batchnorm_1/add_1/conv", "op": "Conv2D", "input": ["resnet_v1_50/block3/unit_6/bottleneck_v1/Pad", "resnet_v1_50/block3/unit_6/bottleneck_v1/conv2/weights"], "attr": {"data_format": {"s": "TkhXQw=="}, "strides": {"list": {"i": ["1", "2", "2", "1"]}}, "use_cudnn_on_gpu": {"b": true}, "explicit_paddings": {"list": {}}, "padding": {"s": "VkFMSUQ="}, "dilations": {"list": {"i": ["1", "1", "1", "1"]}}, "T": {"type": "DT_FLOAT"}}}, {"name": "resnet_v1_50/block3/unit_6/bottleneck_v1/conv2/BatchNorm/batchnorm_1/add_1", "op": "BiasAdd", "input": ["resnet_v1_50/block3/unit_6/bottleneck_v1/conv2/BatchNorm/batchnorm_1/add_1/conv", "resnet_v1_50/block3/unit_6/bottleneck_v1/conv2/Conv2D_bias"], "attr": {"T": {"type": "DT_FLOAT"}, "data_format": {"s": "TkhXQw=="}}}, {"name": "resnet_v1_50/block3/unit_6/bottleneck_v1/conv2/Relu", "op": "Relu", "input": ["resnet_v1_50/block3/unit_6/bottleneck_v1/conv2/BatchNorm/batchnorm_1/add_1"], "attr": {"T": {"type": "DT_FLOAT"}}}, {"name": "resnet_v1_50/block3/unit_6/bottleneck_v1/conv3/BatchNorm/batchnorm_1/add_1/conv", "op": "Conv2D", "input": ["resnet_v1_50/block3/unit_6/bottleneck_v1/conv2/Relu", "resnet_v1_50/block3/unit_6/bottleneck_v1/conv3/weights"], "attr": {"dilations": {"list": {"i": ["1", "1", "1", "1"]}}, "T": {"type": "DT_FLOAT"}, "data_format": {"s": "TkhXQw=="}, "strides": {"list": {"i": ["1", "1", "1", "1"]}}, "explicit_paddings": {"list": {}}, "use_cudnn_on_gpu": {"b": true}, "padding": {"s": "U0FNRQ=="}}}, {"name": "resnet_v1_50/block3/unit_6/bottleneck_v1/conv3/BatchNorm/batchnorm_1/add_1", "op": "BiasAdd", "input": ["resnet_v1_50/block3/unit_6/bottleneck_v1/conv3/BatchNorm/batchnorm_1/add_1/conv", "resnet_v1_50/block3/unit_6/bottleneck_v1/conv3/Conv2D_bias"], "attr": {"data_format": {"s": "TkhXQw=="}, "T": {"type": "DT_FLOAT"}}}, {"name": "resnet_v1_50/block3/unit_6/bottleneck_v1/add", "op": "Add", "input": ["resnet_v1_50/block3/unit_6/bottleneck_v1/conv3/BatchNorm/batchnorm_1/add_1", "resnet_v1_50/block3/unit_6/bottleneck_v1/shortcut/MaxPool"], "attr": {"T": {"type": "DT_FLOAT"}}}, {"name": "resnet_v1_50/block3/unit_6/bottleneck_v1/Relu", "op": "Relu", "input": ["resnet_v1_50/block3/unit_6/bottleneck_v1/add"], "attr": {"T": {"type": "DT_FLOAT"}}}, {"name": "resnet_v1_50/block4/unit_1/bottleneck_v1/shortcut/BatchNorm/batchnorm_1/add_1/conv", "op": "Conv2D", "input": ["resnet_v1_50/block3/unit_6/bottleneck_v1/Relu", "resnet_v1_50/block4/unit_1/bottleneck_v1/shortcut/weights"], "attr": {"T": {"type": "DT_FLOAT"}, "strides": {"list": {"i": ["1", "1", "1", "1"]}}, "data_format": {"s": "TkhXQw=="}, "explicit_paddings": {"list": {}}, "use_cudnn_on_gpu": {"b": true}, "padding": {"s": "U0FNRQ=="}, "dilations": {"list": {"i": ["1", "1", "1", "1"]}}}}, {"name": "resnet_v1_50/block4/unit_1/bottleneck_v1/conv1/BatchNorm/batchnorm_1/add_1/conv", "op": "Conv2D", "input": ["resnet_v1_50/block3/unit_6/bottleneck_v1/Relu", "resnet_v1_50/block4/unit_1/bottleneck_v1/conv1/weights"], "attr": {"dilations": {"list": {"i": ["1", "1", "1", "1"]}}, "T": {"type": "DT_FLOAT"}, "data_format": {"s": "TkhXQw=="}, "strides": {"list": {"i": ["1", "1", "1", "1"]}}, "use_cudnn_on_gpu": {"b": true}, "explicit_paddings": {"list": {}}, "padding": {"s": "U0FNRQ=="}}}, {"name": "resnet_v1_50/block4/unit_1/bottleneck_v1/shortcut/BatchNorm/batchnorm_1/add_1", "op": "BiasAdd", "input": ["resnet_v1_50/block4/unit_1/bottleneck_v1/shortcut/BatchNorm/batchnorm_1/add_1/conv", "resnet_v1_50/block4/unit_1/bottleneck_v1/shortcut/Conv2D_bias"], "attr": {"T": {"type": "DT_FLOAT"}, "data_format": {"s": "TkhXQw=="}}}, {"name": "resnet_v1_50/block4/unit_1/bottleneck_v1/conv1/BatchNorm/batchnorm_1/add_1", "op": "BiasAdd", "input": ["resnet_v1_50/block4/unit_1/bottleneck_v1/conv1/BatchNorm/batchnorm_1/add_1/conv", "resnet_v1_50/block4/unit_1/bottleneck_v1/conv1/Conv2D_bias"], "attr": {"data_format": {"s": "TkhXQw=="}, "T": {"type": "DT_FLOAT"}}}, {"name": "resnet_v1_50/block4/unit_1/bottleneck_v1/conv1/Relu", "op": "Relu", "input": ["resnet_v1_50/block4/unit_1/bottleneck_v1/conv1/BatchNorm/batchnorm_1/add_1"], "attr": {"T": {"type": "DT_FLOAT"}}}, {"name": "resnet_v1_50/block4/unit_1/bottleneck_v1/conv2/BatchNorm/batchnorm_1/add_1/conv", "op": "Conv2D", "input": ["resnet_v1_50/block4/unit_1/bottleneck_v1/conv1/Relu", "resnet_v1_50/block4/unit_1/bottleneck_v1/conv2/weights"], "attr": {"T": {"type": "DT_FLOAT"}, "strides": {"list": {"i": ["1", "1", "1", "1"]}}, "data_format": {"s": "TkhXQw=="}, "use_cudnn_on_gpu": {"b": true}, "explicit_paddings": {"list": {}}, "padding": {"s": "U0FNRQ=="}, "dilations": {"list": {"i": ["1", "1", "1", "1"]}}}}, {"name": "resnet_v1_50/block4/unit_1/bottleneck_v1/conv2/BatchNorm/batchnorm_1/add_1", "op": "BiasAdd", "input": ["resnet_v1_50/block4/unit_1/bottleneck_v1/conv2/BatchNorm/batchnorm_1/add_1/conv", "resnet_v1_50/block4/unit_1/bottleneck_v1/conv2/Conv2D_bias"], "attr": {"T": {"type": "DT_FLOAT"}, "data_format": {"s": "TkhXQw=="}}}, {"name": "resnet_v1_50/block4/unit_1/bottleneck_v1/conv2/Relu", "op": "Relu", "input": ["resnet_v1_50/block4/unit_1/bottleneck_v1/conv2/BatchNorm/batchnorm_1/add_1"], "attr": {"T": {"type": "DT_FLOAT"}}}, {"name": "resnet_v1_50/block4/unit_1/bottleneck_v1/conv3/BatchNorm/batchnorm_1/add_1/conv", "op": "Conv2D", "input": ["resnet_v1_50/block4/unit_1/bottleneck_v1/conv2/Relu", "resnet_v1_50/block4/unit_1/bottleneck_v1/conv3/weights"], "attr": {"dilations": {"list": {"i": ["1", "1", "1", "1"]}}, "T": {"type": "DT_FLOAT"}, "strides": {"list": {"i": ["1", "1", "1", "1"]}}, "data_format": {"s": "TkhXQw=="}, "use_cudnn_on_gpu": {"b": true}, "explicit_paddings": {"list": {}}, "padding": {"s": "U0FNRQ=="}}}, {"name": "resnet_v1_50/block4/unit_1/bottleneck_v1/conv3/BatchNorm/batchnorm_1/add_1", "op": "BiasAdd", "input": ["resnet_v1_50/block4/unit_1/bottleneck_v1/conv3/BatchNorm/batchnorm_1/add_1/conv", "resnet_v1_50/block4/unit_1/bottleneck_v1/conv3/Conv2D_bias"], "attr": {"T": {"type": "DT_FLOAT"}, "data_format": {"s": "TkhXQw=="}}}, {"name": "resnet_v1_50/block4/unit_1/bottleneck_v1/add", "op": "Add", "input": ["resnet_v1_50/block4/unit_1/bottleneck_v1/conv3/BatchNorm/batchnorm_1/add_1", "resnet_v1_50/block4/unit_1/bottleneck_v1/shortcut/BatchNorm/batchnorm_1/add_1"], "attr": {"T": {"type": "DT_FLOAT"}}}, {"name": "resnet_v1_50/block4/unit_1/bottleneck_v1/Relu", "op": "Relu", "input": ["resnet_v1_50/block4/unit_1/bottleneck_v1/add"], "attr": {"T": {"type": "DT_FLOAT"}}}, {"name": "resnet_v1_50/block4/unit_2/bottleneck_v1/conv1/BatchNorm/batchnorm_1/add_1/conv", "op": "Conv2D", "input": ["resnet_v1_50/block4/unit_1/bottleneck_v1/Relu", "resnet_v1_50/block4/unit_2/bottleneck_v1/conv1/weights"], "attr": {"dilations": {"list": {"i": ["1", "1", "1", "1"]}}, "T": {"type": "DT_FLOAT"}, "data_format": {"s": "TkhXQw=="}, "strides": {"list": {"i": ["1", "1", "1", "1"]}}, "use_cudnn_on_gpu": {"b": true}, "explicit_paddings": {"list": {}}, "padding": {"s": "U0FNRQ=="}}}, {"name": "resnet_v1_50/block4/unit_2/bottleneck_v1/conv1/BatchNorm/batchnorm_1/add_1", "op": "BiasAdd", "input": ["resnet_v1_50/block4/unit_2/bottleneck_v1/conv1/BatchNorm/batchnorm_1/add_1/conv", "resnet_v1_50/block4/unit_2/bottleneck_v1/conv1/Conv2D_bias"], "attr": {"T": {"type": "DT_FLOAT"}, "data_format": {"s": "TkhXQw=="}}}, {"name": "resnet_v1_50/block4/unit_2/bottleneck_v1/conv1/Relu", "op": "Relu", "input": ["resnet_v1_50/block4/unit_2/bottleneck_v1/conv1/BatchNorm/batchnorm_1/add_1"], "attr": {"T": {"type": "DT_FLOAT"}}}, {"name": "resnet_v1_50/block4/unit_2/bottleneck_v1/conv2/BatchNorm/batchnorm_1/add_1/conv", "op": "Conv2D", "input": ["resnet_v1_50/block4/unit_2/bottleneck_v1/conv1/Relu", "resnet_v1_50/block4/unit_2/bottleneck_v1/conv2/weights"], "attr": {"dilations": {"list": {"i": ["1", "1", "1", "1"]}}, "T": {"type": "DT_FLOAT"}, "data_format": {"s": "TkhXQw=="}, "strides": {"list": {"i": ["1", "1", "1", "1"]}}, "use_cudnn_on_gpu": {"b": true}, "explicit_paddings": {"list": {}}, "padding": {"s": "U0FNRQ=="}}}, {"name": "resnet_v1_50/block4/unit_2/bottleneck_v1/conv2/BatchNorm/batchnorm_1/add_1", "op": "BiasAdd", "input": ["resnet_v1_50/block4/unit_2/bottleneck_v1/conv2/BatchNorm/batchnorm_1/add_1/conv", "resnet_v1_50/block4/unit_2/bottleneck_v1/conv2/Conv2D_bias"], "attr": {"T": {"type": "DT_FLOAT"}, "data_format": {"s": "TkhXQw=="}}}, {"name": "resnet_v1_50/block4/unit_2/bottleneck_v1/conv2/Relu", "op": "Relu", "input": ["resnet_v1_50/block4/unit_2/bottleneck_v1/conv2/BatchNorm/batchnorm_1/add_1"], "attr": {"T": {"type": "DT_FLOAT"}}}, {"name": "resnet_v1_50/block4/unit_2/bottleneck_v1/conv3/BatchNorm/batchnorm_1/add_1/conv", "op": "Conv2D", "input": ["resnet_v1_50/block4/unit_2/bottleneck_v1/conv2/Relu", "resnet_v1_50/block4/unit_2/bottleneck_v1/conv3/weights"], "attr": {"explicit_paddings": {"list": {}}, "use_cudnn_on_gpu": {"b": true}, "padding": {"s": "U0FNRQ=="}, "dilations": {"list": {"i": ["1", "1", "1", "1"]}}, "T": {"type": "DT_FLOAT"}, "data_format": {"s": "TkhXQw=="}, "strides": {"list": {"i": ["1", "1", "1", "1"]}}}}, {"name": "resnet_v1_50/block4/unit_2/bottleneck_v1/conv3/BatchNorm/batchnorm_1/add_1", "op": "BiasAdd", "input": ["resnet_v1_50/block4/unit_2/bottleneck_v1/conv3/BatchNorm/batchnorm_1/add_1/conv", "resnet_v1_50/block4/unit_2/bottleneck_v1/conv3/Conv2D_bias"], "attr": {"T": {"type": "DT_FLOAT"}, "data_format": {"s": "TkhXQw=="}}}, {"name": "resnet_v1_50/block4/unit_2/bottleneck_v1/add", "op": "Add", "input": ["resnet_v1_50/block4/unit_1/bottleneck_v1/Relu", "resnet_v1_50/block4/unit_2/bottleneck_v1/conv3/BatchNorm/batchnorm_1/add_1"], "attr": {"T": {"type": "DT_FLOAT"}}}, {"name": "resnet_v1_50/block4/unit_2/bottleneck_v1/Relu", "op": "Relu", "input": ["resnet_v1_50/block4/unit_2/bottleneck_v1/add"], "attr": {"T": {"type": "DT_FLOAT"}}}, {"name": "resnet_v1_50/block4/unit_3/bottleneck_v1/conv1/BatchNorm/batchnorm_1/add_1/conv", "op": "Conv2D", "input": ["resnet_v1_50/block4/unit_2/bottleneck_v1/Relu", "resnet_v1_50/block4/unit_3/bottleneck_v1/conv1/weights"], "attr": {"dilations": {"list": {"i": ["1", "1", "1", "1"]}}, "T": {"type": "DT_FLOAT"}, "data_format": {"s": "TkhXQw=="}, "strides": {"list": {"i": ["1", "1", "1", "1"]}}, "use_cudnn_on_gpu": {"b": true}, "explicit_paddings": {"list": {}}, "padding": {"s": "U0FNRQ=="}}}, {"name": "resnet_v1_50/block4/unit_3/bottleneck_v1/conv1/BatchNorm/batchnorm_1/add_1", "op": "BiasAdd", "input": ["resnet_v1_50/block4/unit_3/bottleneck_v1/conv1/BatchNorm/batchnorm_1/add_1/conv", "resnet_v1_50/block4/unit_3/bottleneck_v1/conv1/Conv2D_bias"], "attr": {"T": {"type": "DT_FLOAT"}, "data_format": {"s": "TkhXQw=="}}}, {"name": "resnet_v1_50/block4/unit_3/bottleneck_v1/conv1/Relu", "op": "Relu", "input": ["resnet_v1_50/block4/unit_3/bottleneck_v1/conv1/BatchNorm/batchnorm_1/add_1"], "attr": {"T": {"type": "DT_FLOAT"}}}, {"name": "resnet_v1_50/block4/unit_3/bottleneck_v1/conv2/BatchNorm/batchnorm_1/add_1/conv", "op": "Conv2D", "input": ["resnet_v1_50/block4/unit_3/bottleneck_v1/conv1/Relu", "resnet_v1_50/block4/unit_3/bottleneck_v1/conv2/weights"], "attr": {"dilations": {"list": {"i": ["1", "1", "1", "1"]}}, "T": {"type": "DT_FLOAT"}, "data_format": {"s": "TkhXQw=="}, "strides": {"list": {"i": ["1", "1", "1", "1"]}}, "use_cudnn_on_gpu": {"b": true}, "explicit_paddings": {"list": {}}, "padding": {"s": "U0FNRQ=="}}}, {"name": "resnet_v1_50/block4/unit_3/bottleneck_v1/conv2/BatchNorm/batchnorm_1/add_1", "op": "BiasAdd", "input": ["resnet_v1_50/block4/unit_3/bottleneck_v1/conv2/BatchNorm/batchnorm_1/add_1/conv", "resnet_v1_50/block4/unit_3/bottleneck_v1/conv2/Conv2D_bias"], "attr": {"T": {"type": "DT_FLOAT"}, "data_format": {"s": "TkhXQw=="}}}, {"name": "resnet_v1_50/block4/unit_3/bottleneck_v1/conv2/Relu", "op": "Relu", "input": ["resnet_v1_50/block4/unit_3/bottleneck_v1/conv2/BatchNorm/batchnorm_1/add_1"], "attr": {"T": {"type": "DT_FLOAT"}}}, {"name": "resnet_v1_50/block4/unit_3/bottleneck_v1/conv3/BatchNorm/batchnorm_1/add_1/conv", "op": "Conv2D", "input": ["resnet_v1_50/block4/unit_3/bottleneck_v1/conv2/Relu", "resnet_v1_50/block4/unit_3/bottleneck_v1/conv3/weights"], "attr": {"explicit_paddings": {"list": {}}, "use_cudnn_on_gpu": {"b": true}, "padding": {"s": "U0FNRQ=="}, "dilations": {"list": {"i": ["1", "1", "1", "1"]}}, "T": {"type": "DT_FLOAT"}, "data_format": {"s": "TkhXQw=="}, "strides": {"list": {"i": ["1", "1", "1", "1"]}}}}, {"name": "resnet_v1_50/block4/unit_3/bottleneck_v1/conv3/BatchNorm/batchnorm_1/add_1", "op": "BiasAdd", "input": ["resnet_v1_50/block4/unit_3/bottleneck_v1/conv3/BatchNorm/batchnorm_1/add_1/conv", "resnet_v1_50/block4/unit_3/bottleneck_v1/conv3/Conv2D_bias"], "attr": {"T": {"type": "DT_FLOAT"}, "data_format": {"s": "TkhXQw=="}}}, {"name": "resnet_v1_50/block4/unit_3/bottleneck_v1/add", "op": "Add", "input": ["resnet_v1_50/block4/unit_2/bottleneck_v1/Relu", "resnet_v1_50/block4/unit_3/bottleneck_v1/conv3/BatchNorm/batchnorm_1/add_1"], "attr": {"T": {"type": "DT_FLOAT"}}}, {"name": "resnet_v1_50/block4/unit_3/bottleneck_v1/Relu", "op": "Relu", "input": ["resnet_v1_50/block4/unit_3/bottleneck_v1/add"], "attr": {"T": {"type": "DT_FLOAT"}}}, {"name": "resnet_v1_50/displacement_fwd_2/BiasAdd/conv", "op": "Conv2D", "input": ["resnet_v1_50/block4/unit_3/bottleneck_v1/Relu", "resnet_v1_50/displacement_fwd_2/weights"], "attr": {"T": {"type": "DT_FLOAT"}, "strides": {"list": {"i": ["1", "1", "1", "1"]}}, "data_format": {"s": "TkhXQw=="}, "use_cudnn_on_gpu": {"b": true}, "explicit_paddings": {"list": {}}, "padding": {"s": "U0FNRQ=="}, "dilations": {"list": {"i": ["1", "1", "1", "1"]}}}}, {"name": "resnet_v1_50/displacement_bwd_2/BiasAdd/conv", "op": "Conv2D", "input": ["resnet_v1_50/block4/unit_3/bottleneck_v1/Relu", "resnet_v1_50/displacement_bwd_2/weights"], "attr": {"dilations": {"list": {"i": ["1", "1", "1", "1"]}}, "T": {"type": "DT_FLOAT"}, "data_format": {"s": "TkhXQw=="}, "strides": {"list": {"i": ["1", "1", "1", "1"]}}, "use_cudnn_on_gpu": {"b": true}, "explicit_paddings": {"list": {}}, "padding": {"s": "U0FNRQ=="}}}, {"name": "float_short_offsets/conv", "op": "Conv2D", "input": ["resnet_v1_50/block4/unit_3/bottleneck_v1/Relu", "resnet_v1_50/offset_2/weights"], "attr": {"dilations": {"list": {"i": ["1", "1", "1", "1"]}}, "T": {"type": "DT_FLOAT"}, "strides": {"list": {"i": ["1", "1", "1", "1"]}}, "data_format": {"s": "TkhXQw=="}, "explicit_paddings": {"list": {}}, "use_cudnn_on_gpu": {"b": true}, "padding": {"s": "U0FNRQ=="}}}, {"name": "float_heatmaps/conv", "op": "Conv2D", "input": ["resnet_v1_50/block4/unit_3/bottleneck_v1/Relu", "resnet_v1_50/heatmap_2/weights"], "attr": {"use_cudnn_on_gpu": {"b": true}, "explicit_paddings": {"list": {}}, "padding": {"s": "U0FNRQ=="}, "dilations": {"list": {"i": ["1", "1", "1", "1"]}}, "T": {"type": "DT_FLOAT"}, "data_format": {"s": "TkhXQw=="}, "strides": {"list": {"i": ["1", "1", "1", "1"]}}}}, {"name": "resnet_v1_50/displacement_fwd_2/BiasAdd", "op": "BiasAdd", "input": ["resnet_v1_50/displacement_fwd_2/BiasAdd/conv", "resnet_v1_50/displacement_fwd_2/Conv2D_bias"], "attr": {"data_format": {"s": "TkhXQw=="}, "T": {"type": "DT_FLOAT"}}}, {"name": "resnet_v1_50/displacement_bwd_2/BiasAdd", "op": "BiasAdd", "input": ["resnet_v1_50/displacement_bwd_2/BiasAdd/conv", "resnet_v1_50/displacement_bwd_2/Conv2D_bias"], "attr": {"T": {"type": "DT_FLOAT"}, "data_format": {"s": "TkhXQw=="}}}, {"name": "float_short_offsets", "op": "BiasAdd", "input": ["float_short_offsets/conv", "resnet_v1_50/offset_2/Conv2D_bias"], "attr": {"data_format": {"s": "TkhXQw=="}, "T": {"type": "DT_FLOAT"}}}, {"name": "float_heatmaps", "op": "BiasAdd", "input": ["float_heatmaps/conv", "resnet_v1_50/heatmap_2/Conv2D_bias"], "attr": {"T": {"type": "DT_FLOAT"}, "data_format": {"s": "TkhXQw=="}}}], "library": {}, "versions": {"producer": 54}}, "weightsManifest": [{"paths": ["group1-shard1of12.bin", "group1-shard2of12.bin", "group1-shard3of12.bin", "group1-shard4of12.bin", "group1-shard5of12.bin", "group1-shard6of12.bin", "group1-shard7of12.bin", "group1-shard8of12.bin", "group1-shard9of12.bin", "group1-shard10of12.bin", "group1-shard11of12.bin", "group1-shard12of12.bin"], "weights": [{"name": "resnet_v1_50/displacement_fwd_2/Conv2D_bias", "shape": [32], "dtype": "float32", "quantization": {"min": -0.010887794621118812, "scale": 8.788275584081695e-07, "dtype": "uint16"}}, {"name": "resnet_v1_50/displacement_fwd_2/weights", "shape": [1, 1, 2048, 32], "dtype": "float32", "quantization": {"min": -0.44598068426855375, "scale": 1.9908963183275467e-05, "dtype": "uint16"}}, {"name": "resnet_v1_50/block4/unit_3/bottleneck_v1/conv3/Conv2D_bias", "shape": [2048], "dtype": "float32", "quantization": {"min": -4.586533705138811, "scale": 9.465357654653316e-05, "dtype": "uint16"}}, {"name": "resnet_v1_50/block4/unit_3/bottleneck_v1/conv3/weights", "shape": [1, 1, 512, 2048], "dtype": "float32", "quantization": {"min": -4.832814107756507, "scale": 0.00014169566680612505, "dtype": "uint16"}}, {"name": "resnet_v1_50/block4/unit_3/bottleneck_v1/conv2/Conv2D_bias", "shape": [512], "dtype": "float32", "quantization": {"min": -2.2322060273588042, "scale": 5.080932391047287e-05, "dtype": "uint16"}}, {"name": "resnet_v1_50/block4/unit_3/bottleneck_v1/conv2/weights", "shape": [3, 3, 512, 512], "dtype": "float32", "quantization": {"min": -0.7595157193302644, "scale": 2.5198756488844577e-05, "dtype": "uint16"}}, {"name": "resnet_v1_50/block4/unit_3/bottleneck_v1/conv1/Conv2D_bias", "shape": [512], "dtype": "float32", "quantization": {"min": -2.72907949562812, "scale": 7.98840703576419e-05, "dtype": "uint16"}}, {"name": "resnet_v1_50/block4/unit_3/bottleneck_v1/conv1/weights", "shape": [1, 1, 2048, 512], "dtype": "float32", "quantization": {"min": -0.10309418202130939, "scale": 3.1673532833976278e-06, "dtype": "uint16"}}, {"name": "resnet_v1_50/block4/unit_2/bottleneck_v1/conv3/Conv2D_bias", "shape": [2048], "dtype": "float32", "quantization": {"min": -8.419133744451177, "scale": 0.00019432507200118124, "dtype": "uint16"}}, {"name": "resnet_v1_50/block4/unit_2/bottleneck_v1/conv3/weights", "shape": [1, 1, 512, 2048], "dtype": "float32", "quantization": {"min": -6.969436470358288, "scale": 0.0002209433321822942, "dtype": "uint16"}}, {"name": "resnet_v1_50/block4/unit_2/bottleneck_v1/conv2/Conv2D_bias", "shape": [512], "dtype": "float32", "quantization": {"min": -2.206116016834981, "scale": 5.8118391338944155e-05, "dtype": "uint16"}}, {"name": "resnet_v1_50/block4/unit_2/bottleneck_v1/conv2/weights", "shape": [3, 3, 512, 512], "dtype": "float32", "quantization": {"min": -0.46124658118107775, "scale": 1.4885644522722447e-05, "dtype": "uint16"}}, {"name": "resnet_v1_50/block4/unit_2/bottleneck_v1/conv1/Conv2D_bias", "shape": [512], "dtype": "float32", "quantization": {"min": -3.254596268343982, "scale": 6.591453881124396e-05, "dtype": "uint16"}}, {"name": "resnet_v1_50/block4/unit_2/bottleneck_v1/conv1/weights", "shape": [1, 1, 2048, 512], "dtype": "float32", "quantization": {"min": -0.11193739838180237, "scale": 4.031310490215089e-06, "dtype": "uint16"}}, {"name": "resnet_v1_50/block4/unit_1/bottleneck_v1/shortcut/Conv2D_bias", "shape": [2048], "dtype": "float32", "quantization": {"min": -4.90920731650798, "scale": 0.00015431935485062177, "dtype": "uint16"}}, {"name": "resnet_v1_50/block4/unit_1/bottleneck_v1/shortcut/weights", "shape": [1, 1, 1024, 2048], "dtype": "float32", "quantization": {"min": -2.3925190565105323, "scale": 6.40138877996129e-05, "dtype": "uint16"}}, {"name": "resnet_v1_50/block3/unit_5/bottleneck_v1/conv3/Conv2D_bias", "shape": [1024], "dtype": "float32", "quantization": {"min": -3.7284585851694194, "scale": 7.962198272726033e-05, "dtype": "uint16"}}, {"name": "resnet_v1_50/block3/unit_5/bottleneck_v1/conv3/weights", "shape": [1, 1, 256, 1024], "dtype": "float32", "quantization": {"min": -1.1580537523277075, "scale": 3.8683026099064955e-05, "dtype": "uint16"}}, {"name": "resnet_v1_50/block3/unit_5/bottleneck_v1/conv2/Conv2D_bias", "shape": [256], "dtype": "float32", "quantization": {"min": -2.2964923334656495, "scale": 4.607821853298922e-05, "dtype": "uint16"}}, {"name": "resnet_v1_50/block3/unit_5/bottleneck_v1/conv2/weights", "shape": [3, 3, 256, 256], "dtype": "float32", "quantization": {"min": -0.8852491033352822, "scale": 2.5174153372253154e-05, "dtype": "uint16"}}, {"name": "resnet_v1_50/block3/unit_5/bottleneck_v1/conv1/Conv2D_bias", "shape": [256], "dtype": "float32", "quantization": {"min": -1.7733687991634646, "scale": 3.8588406283476904e-05, "dtype": "uint16"}}, {"name": "resnet_v1_50/block3/unit_5/bottleneck_v1/conv1/weights", "shape": [1, 1, 1024, 256], "dtype": "float32", "quantization": {"min": -0.25308350343457564, "scale": 9.384585561946591e-06, "dtype": "uint16"}}, {"name": "resnet_v1_50/block3/unit_4/bottleneck_v1/conv3/Conv2D_bias", "shape": [1024], "dtype": "float32", "quantization": {"min": -1.417183738887342, "scale": 4.555542572526735e-05, "dtype": "uint16"}}, {"name": "resnet_v1_50/block3/unit_4/bottleneck_v1/conv3/weights", "shape": [1, 1, 256, 1024], "dtype": "float32", "quantization": {"min": -2.8677334065421674, "scale": 8.0822202991437e-05, "dtype": "uint16"}}, {"name": "resnet_v1_50/block3/unit_4/bottleneck_v1/conv2/Conv2D_bias", "shape": [256], "dtype": "float32", "quantization": {"min": -2.8740074006627276, "scale": 6.42681500181741e-05, "dtype": "uint16"}}, {"name": "resnet_v1_50/block3/unit_4/bottleneck_v1/conv2/weights", "shape": [3, 3, 256, 256], "dtype": "float32", "quantization": {"min": -0.641147982580325, "scale": 2.0056557780846656e-05, "dtype": "uint16"}}, {"name": "resnet_v1_50/block3/unit_4/bottleneck_v1/conv1/Conv2D_bias", "shape": [256], "dtype": "float32", "quantization": {"min": -2.2207726464388324, "scale": 4.98355694636424e-05, "dtype": "uint16"}}, {"name": "resnet_v1_50/block3/unit_4/bottleneck_v1/conv1/weights", "shape": [1, 1, 1024, 256], "dtype": "float32", "quantization": {"min": -0.19206160673917252, "scale": 7.170758913499572e-06, "dtype": "uint16"}}, {"name": "resnet_v1_50/block3/unit_3/bottleneck_v1/conv3/Conv2D_bias", "shape": [1024], "dtype": "float32", "quantization": {"min": -2.185349017625871, "scale": 5.6749046135341636e-05, "dtype": "uint16"}}, {"name": "resnet_v1_50/block3/unit_3/bottleneck_v1/conv3/weights", "shape": [1, 1, 256, 1024], "dtype": "float32", "quantization": {"min": -1.286427904868859, "scale": 4.397292445287503e-05, "dtype": "uint16"}}, {"name": "resnet_v1_50/block3/unit_3/bottleneck_v1/conv2/Conv2D_bias", "shape": [256], "dtype": "float32", "quantization": {"min": -1.8843312395549416, "scale": 4.881940099370282e-05, "dtype": "uint16"}}, {"name": "resnet_v1_50/block3/unit_3/bottleneck_v1/conv2/weights", "shape": [3, 3, 256, 256], "dtype": "float32", "quantization": {"min": -0.5621616186880635, "scale": 1.748776266683455e-05, "dtype": "uint16"}}, {"name": "resnet_v1_50/block3/unit_3/bottleneck_v1/conv1/Conv2D_bias", "shape": [256], "dtype": "float32", "quantization": {"min": -2.6134873529134284, "scale": 5.4717822433964124e-05, "dtype": "uint16"}}, {"name": "resnet_v1_50/block3/unit_3/bottleneck_v1/conv1/weights", "shape": [1, 1, 1024, 256], "dtype": "float32", "quantization": {"min": -0.3738246393292867, "scale": 1.1163276475327342e-05, "dtype": "uint16"}}, {"name": "resnet_v1_50/block3/unit_2/bottleneck_v1/conv3/Conv2D_bias", "shape": [1024], "dtype": "float32", "quantization": {"min": -2.432043444942062, "scale": 7.151596568183203e-05, "dtype": "uint16"}}, {"name": "resnet_v1_50/block3/unit_2/bottleneck_v1/conv3/weights", "shape": [1, 1, 256, 1024], "dtype": "float32", "quantization": {"min": -4.615465632936197, "scale": 9.647107482674993e-05, "dtype": "uint16"}}, {"name": "resnet_v1_50/block3/unit_2/bottleneck_v1/conv2/Conv2D_bias", "shape": [256], "dtype": "float32", "quantization": {"min": -2.0440376311424644, "scale": 7.542017678187825e-05, "dtype": "uint16"}}, {"name": "resnet_v1_50/block3/unit_2/bottleneck_v1/conv2/weights", "shape": [3, 3, 256, 256], "dtype": "float32", "quantization": {"min": -0.4680465111772865, "scale": 1.7814056145896572e-05, "dtype": "uint16"}}, {"name": "resnet_v1_50/block3/unit_2/bottleneck_v1/conv1/Conv2D_bias", "shape": [256], "dtype": "float32", "quantization": {"min": -2.2650993689725283, "scale": 6.823821681546449e-05, "dtype": "uint16"}}, {"name": "resnet_v1_50/block3/unit_2/bottleneck_v1/conv1/weights", "shape": [1, 1, 1024, 256], "dtype": "float32", "quantization": {"min": -0.24592404922340705, "scale": 9.739566305877507e-06, "dtype": "uint16"}}, {"name": "resnet_v1_50/block3/unit_1/bottleneck_v1/shortcut/Conv2D_bias", "shape": [1024], "dtype": "float32", "quantization": {"min": -3.2348870620980748, "scale": 0.00010533660247795749, "dtype": "uint16"}}, {"name": "resnet_v1_50/block3/unit_1/bottleneck_v1/shortcut/weights", "shape": [1, 1, 512, 1024], "dtype": "float32", "quantization": {"min": -0.8265826122851905, "scale": 3.681062624293879e-05, "dtype": "uint16"}}, {"name": "resnet_v1_50/block2/unit_3/bottleneck_v1/conv3/Conv2D_bias", "shape": [512], "dtype": "float32", "quantization": {"min": -1.9328251322774437, "scale": 7.149872867522819e-05, "dtype": "uint16"}}, {"name": "resnet_v1_50/block2/unit_3/bottleneck_v1/conv3/weights", "shape": [1, 1, 128, 512], "dtype": "float32", "quantization": {"min": -4.5360314345699955, "scale": 0.00012832498117488955, "dtype": "uint16"}}, {"name": "resnet_v1_50/block2/unit_3/bottleneck_v1/conv2/Conv2D_bias", "shape": [128], "dtype": "float32", "quantization": {"min": -2.7102307780761965, "scale": 5.7865165960163895e-05, "dtype": "uint16"}}, {"name": "resnet_v1_50/block2/unit_3/bottleneck_v1/conv2/weights", "shape": [3, 3, 128, 128], "dtype": "float32", "quantization": {"min": -0.7056285355887278, "scale": 2.3304221922412493e-05, "dtype": "uint16"}}, {"name": "resnet_v1_50/block2/unit_3/bottleneck_v1/conv1/Conv2D_bias", "shape": [128], "dtype": "float32", "quantization": {"min": -2.6207719160234064, "scale": 7.193006493820245e-05, "dtype": "uint16"}}, {"name": "resnet_v1_50/block2/unit_3/bottleneck_v1/conv1/weights", "shape": [1, 1, 512, 128], "dtype": "float32", "quantization": {"min": -0.3344170218580164, "scale": 1.939211492363099e-05, "dtype": "uint16"}}, {"name": "resnet_v1_50/block2/unit_2/bottleneck_v1/conv3/Conv2D_bias", "shape": [512], "dtype": "float32", "quantization": {"min": -2.0056624106577936, "scale": 7.567395150384069e-05, "dtype": "uint16"}}, {"name": "resnet_v1_50/block2/unit_2/bottleneck_v1/conv3/weights", "shape": [1, 1, 128, 512], "dtype": "float32", "quantization": {"min": -2.5063107671204334, "scale": 7.227796652210271e-05, "dtype": "uint16"}}, {"name": "resnet_v1_50/block2/unit_2/bottleneck_v1/conv2/Conv2D_bias", "shape": [128], "dtype": "float32", "quantization": {"min": -1.1648063824398163, "scale": 4.1458085935357925e-05, "dtype": "uint16"}}, {"name": "resnet_v1_50/block2/unit_2/bottleneck_v1/conv2/weights", "shape": [3, 3, 128, 128], "dtype": "float32", "quantization": {"min": -0.6447185631464828, "scale": 2.0657435538176314e-05, "dtype": "uint16"}}, {"name": "resnet_v1_50/block2/unit_2/bottleneck_v1/conv1/Conv2D_bias", "shape": [128], "dtype": "float32", "quantization": {"min": -3.341953936363145, "scale": 7.409275992380324e-05, "dtype": "uint16"}}, {"name": "resnet_v1_50/block2/unit_2/bottleneck_v1/conv1/weights", "shape": [1, 1, 512, 128], "dtype": "float32", "quantization": {"min": -0.34522885757370475, "scale": 9.232199218422868e-06, "dtype": "uint16"}}, {"name": "resnet_v1_50/block2/unit_1/bottleneck_v1/shortcut/Conv2D_bias", "shape": [512], "dtype": "float32", "quantization": {"min": -3.43989979289276, "scale": 0.00013776682257570427, "dtype": "uint16"}}, {"name": "resnet_v1_50/block2/unit_1/bottleneck_v1/shortcut/weights", "shape": [1, 1, 256, 512], "dtype": "float32", "quantization": {"min": -1.9523288016371299, "scale": 5.137707372729289e-05, "dtype": "uint16"}}, {"name": "resnet_v1_50/block1/unit_2/bottleneck_v1/conv3/Conv2D_bias", "shape": [256], "dtype": "float32", "quantization": {"min": -4.643979529897181, "scale": 0.00012102836855690968, "dtype": "uint16"}}, {"name": "resnet_v1_50/block1/unit_2/bottleneck_v1/conv3/weights", "shape": [1, 1, 64, 256], "dtype": "float32", "quantization": {"min": -2.357317831875158, "scale": 7.445729096257606e-05, "dtype": "uint16"}}, {"name": "resnet_v1_50/block1/unit_2/bottleneck_v1/conv2/Conv2D_bias", "shape": [64], "dtype": "float32", "quantization": {"min": -2.534998577932767, "scale": 6.240303714478908e-05, "dtype": "uint16"}}, {"name": "resnet_v1_50/block1/unit_2/bottleneck_v1/conv2/weights", "shape": [3, 3, 64, 64], "dtype": "float32", "quantization": {"min": -0.650021472234261, "scale": 2.6452670501536688e-05, "dtype": "uint16"}}, {"name": "resnet_v1_50/block1/unit_2/bottleneck_v1/conv1/Conv2D_bias", "shape": [64], "dtype": "float32", "quantization": {"min": -2.848293014921312, "scale": 7.641500818053636e-05, "dtype": "uint16"}}, {"name": "resnet_v1_50/block1/unit_2/bottleneck_v1/conv1/weights", "shape": [1, 1, 256, 64], "dtype": "float32", "quantization": {"min": -0.7356630136348785, "scale": 1.8058397899623903e-05, "dtype": "uint16"}}, {"name": "resnet_v1_50/block1/unit_1/bottleneck_v1/shortcut/Conv2D_bias", "shape": [256], "dtype": "float32", "quantization": {"min": -5.122845277068107, "scale": 0.00020398364565852141, "dtype": "uint16"}}, {"name": "resnet_v1_50/block1/unit_1/bottleneck_v1/shortcut/weights", "shape": [1, 1, 64, 256], "dtype": "float32", "quantization": {"min": -3.039734904990004, "scale": 7.541643688259822e-05, "dtype": "uint16"}}, {"name": "resnet_v1_50/Pad_1/paddings", "shape": [4, 2], "dtype": "int32", "quantization": {"min": -0.0, "scale": 1.5259021896696422e-05, "dtype": "uint16"}}, {"name": "resnet_v1_50/conv1/Conv2D_bias", "shape": [64], "dtype": "float32", "quantization": {"min": -3.5017790478045474, "scale": 9.524244697159267e-05, "dtype": "uint16"}}, {"name": "resnet_v1_50/conv1/weights", "shape": [7, 7, 3, 64], "dtype": "float32", "quantization": {"min": -0.06388513055726167, "scale": 1.8806891741664949e-06, "dtype": "uint16"}}, {"name": "resnet_v1_50/Pad/paddings", "shape": [4, 2], "dtype": "int32", "quantization": {"min": -0.0, "scale": 4.5777065690089265e-05, "dtype": "uint16"}}, {"name": "resnet_v1_50/block1/unit_1/bottleneck_v1/conv3/Conv2D_bias", "shape": [256], "dtype": "float32", "quantization": {"min": -4.580866805525023, "scale": 0.0001730392024147253, "dtype": "uint16"}}, {"name": "resnet_v1_50/block1/unit_1/bottleneck_v1/conv3/weights", "shape": [1, 1, 64, 256], "dtype": "float32", "quantization": {"min": -3.3833070992350245, "scale": 9.643447438248274e-05, "dtype": "uint16"}}, {"name": "resnet_v1_50/block1/unit_1/bottleneck_v1/conv2/Conv2D_bias", "shape": [64], "dtype": "float32", "quantization": {"min": -2.527399060083507, "scale": 0.00011411409879372887, "dtype": "uint16"}}, {"name": "resnet_v1_50/block1/unit_1/bottleneck_v1/conv2/weights", "shape": [3, 3, 64, 64], "dtype": "float32", "quantization": {"min": -0.5891854808542815, "scale": 1.5858782322735828e-05, "dtype": "uint16"}}, {"name": "resnet_v1_50/block1/unit_1/bottleneck_v1/conv1/Conv2D_bias", "shape": [64], "dtype": "float32", "quantization": {"min": -4.190637946046989, "scale": 0.00013284634477879186, "dtype": "uint16"}}, {"name": "resnet_v1_50/block1/unit_1/bottleneck_v1/conv1/weights", "shape": [1, 1, 64, 64], "dtype": "float32", "quantization": {"min": -3.136642245243332, "scale": 6.891750148843917e-05, "dtype": "uint16"}}, {"name": "resnet_v1_50/block1/unit_3/bottleneck_v1/conv3/Conv2D_bias", "shape": [256], "dtype": "float32", "quantization": {"min": -1.9729519707847172, "scale": 7.629357969005094e-05, "dtype": "uint16"}}, {"name": "resnet_v1_50/block1/unit_3/bottleneck_v1/conv3/weights", "shape": [1, 1, 64, 256], "dtype": "float32", "quantization": {"min": -1.7010866924127852, "scale": 5.488615791994274e-05, "dtype": "uint16"}}, {"name": "resnet_v1_50/block1/unit_3/bottleneck_v1/conv2/Conv2D_bias", "shape": [64], "dtype": "float32", "quantization": {"min": -0.43057226784543784, "scale": 2.9959105750447945e-05, "dtype": "uint16"}}, {"name": "resnet_v1_50/block1/unit_3/bottleneck_v1/conv2/weights", "shape": [3, 3, 64, 64], "dtype": "float32", "quantization": {"min": -0.4512805469346063, "scale": 1.3896244709302733e-05, "dtype": "uint16"}}, {"name": "resnet_v1_50/block1/unit_3/bottleneck_v1/conv1/Conv2D_bias", "shape": [64], "dtype": "float32", "quantization": {"min": -2.8874768289919803, "scale": 5.898106113636695e-05, "dtype": "uint16"}}, {"name": "resnet_v1_50/block1/unit_3/bottleneck_v1/conv1/weights", "shape": [1, 1, 256, 64], "dtype": "float32", "quantization": {"min": -1.0425769409617125, "scale": 2.2434518440388028e-05, "dtype": "uint16"}}, {"name": "resnet_v1_50/block2/unit_1/bottleneck_v1/conv3/Conv2D_bias", "shape": [512], "dtype": "float32", "quantization": {"min": -3.9139649667846825, "scale": 0.00011778053524674799, "dtype": "uint16"}}, {"name": "resnet_v1_50/block2/unit_1/bottleneck_v1/conv3/weights", "shape": [1, 1, 128, 512], "dtype": "float32", "quantization": {"min": -3.2476222122307634, "scale": 9.878999246306393e-05, "dtype": "uint16"}}, {"name": "resnet_v1_50/block2/unit_1/bottleneck_v1/conv2/Conv2D_bias", "shape": [128], "dtype": "float32", "quantization": {"min": -2.401929525202341, "scale": 0.00011174883805724115, "dtype": "uint16"}}, {"name": "resnet_v1_50/block2/unit_1/bottleneck_v1/conv2/weights", "shape": [3, 3, 128, 128], "dtype": "float32", "quantization": {"min": -0.5703628695819692, "scale": 1.3672520605570266e-05, "dtype": "uint16"}}, {"name": "resnet_v1_50/block2/unit_1/bottleneck_v1/conv1/Conv2D_bias", "shape": [128], "dtype": "float32", "quantization": {"min": -2.4027454781461346, "scale": 7.158058444740771e-05, "dtype": "uint16"}}, {"name": "resnet_v1_50/block2/unit_1/bottleneck_v1/conv1/weights", "shape": [1, 1, 256, 128], "dtype": "float32", "quantization": {"min": -0.7641524160536766, "scale": 1.95150909429649e-05, "dtype": "uint16"}}, {"name": "resnet_v1_50/block2/unit_4/bottleneck_v1/conv3/Conv2D_bias", "shape": [512], "dtype": "float32", "quantization": {"min": -2.654380721388142, "scale": 8.569152638778867e-05, "dtype": "uint16"}}, {"name": "resnet_v1_50/block2/unit_4/bottleneck_v1/conv3/weights", "shape": [1, 1, 128, 512], "dtype": "float32", "quantization": {"min": -1.5269584029110308, "scale": 5.798209238317945e-05, "dtype": "uint16"}}, {"name": "resnet_v1_50/block2/unit_4/bottleneck_v1/conv2/Conv2D_bias", "shape": [128], "dtype": "float32", "quantization": {"min": -1.0414920001751389, "scale": 4.533350745082001e-05, "dtype": "uint16"}}, {"name": "resnet_v1_50/block2/unit_4/bottleneck_v1/conv2/weights", "shape": [3, 3, 128, 128], "dtype": "float32", "quantization": {"min": -0.35839031107312724, "scale": 1.2782762459361817e-05, "dtype": "uint16"}}, {"name": "resnet_v1_50/block2/unit_4/bottleneck_v1/conv1/Conv2D_bias", "shape": [128], "dtype": "float32", "quantization": {"min": -3.1321804231624903, "scale": 6.090655355583733e-05, "dtype": "uint16"}}, {"name": "resnet_v1_50/block2/unit_4/bottleneck_v1/conv1/weights", "shape": [1, 1, 512, 128], "dtype": "float32", "quantization": {"min": -0.5115204433140805, "scale": 1.8496490447083008e-05, "dtype": "uint16"}}, {"name": "resnet_v1_50/block3/unit_1/bottleneck_v1/conv3/Conv2D_bias", "shape": [1024], "dtype": "float32", "quantization": {"min": -2.8093869981353197, "scale": 0.0001043760959331, "dtype": "uint16"}}, {"name": "resnet_v1_50/block3/unit_1/bottleneck_v1/conv3/weights", "shape": [1, 1, 256, 1024], "dtype": "float32", "quantization": {"min": -9.042257065408116, "scale": 0.0002032378922795198, "dtype": "uint16"}}, {"name": "resnet_v1_50/block3/unit_1/bottleneck_v1/conv2/Conv2D_bias", "shape": [256], "dtype": "float32", "quantization": {"min": -2.4370199971334734, "scale": 8.308117127922386e-05, "dtype": "uint16"}}, {"name": "resnet_v1_50/block3/unit_1/bottleneck_v1/conv2/weights", "shape": [3, 3, 256, 256], "dtype": "float32", "quantization": {"min": -0.4527292927879304, "scale": 1.469709429904981e-05, "dtype": "uint16"}}, {"name": "resnet_v1_50/block3/unit_1/bottleneck_v1/conv1/Conv2D_bias", "shape": [256], "dtype": "float32", "quantization": {"min": -2.4317149337645736, "scale": 5.8547573885601516e-05, "dtype": "uint16"}}, {"name": "resnet_v1_50/block3/unit_1/bottleneck_v1/conv1/weights", "shape": [1, 1, 512, 256], "dtype": "float32", "quantization": {"min": -0.46450373398600087, "scale": 1.3393608430725783e-05, "dtype": "uint16"}}, {"name": "resnet_v1_50/block3/unit_6/bottleneck_v1/conv3/Conv2D_bias", "shape": [1024], "dtype": "float32", "quantization": {"min": -2.467117568070841, "scale": 7.236009878489048e-05, "dtype": "uint16"}}, {"name": "resnet_v1_50/block3/unit_6/bottleneck_v1/conv3/weights", "shape": [1, 1, 256, 1024], "dtype": "float32", "quantization": {"min": -1.0476156004198975, "scale": 4.303913563205692e-05, "dtype": "uint16"}}, {"name": "resnet_v1_50/block3/unit_6/bottleneck_v1/conv2/Conv2D_bias", "shape": [256], "dtype": "float32", "quantization": {"min": -1.8487623054420794, "scale": 4.333815385832015e-05, "dtype": "uint16"}}, {"name": "resnet_v1_50/block3/unit_6/bottleneck_v1/conv2/weights", "shape": [3, 3, 256, 256], "dtype": "float32", "quantization": {"min": -0.937826283830995, "scale": 2.424075382110719e-05, "dtype": "uint16"}}, {"name": "resnet_v1_50/block3/unit_6/bottleneck_v1/conv1/Conv2D_bias", "shape": [256], "dtype": "float32", "quantization": {"min": -1.7002279947949483, "scale": 4.104154282943366e-05, "dtype": "uint16"}}, {"name": "resnet_v1_50/block3/unit_6/bottleneck_v1/conv1/weights", "shape": [1, 1, 1024, 256], "dtype": "float32", "quantization": {"min": -0.195756979459591, "scale": 9.860819033829892e-06, "dtype": "uint16"}}, {"name": "resnet_v1_50/block4/unit_1/bottleneck_v1/conv3/Conv2D_bias", "shape": [2048], "dtype": "float32", "quantization": {"min": -6.204573375350907, "scale": 0.0001670275762605569, "dtype": "uint16"}}, {"name": "resnet_v1_50/block4/unit_1/bottleneck_v1/conv3/weights", "shape": [1, 1, 512, 2048], "dtype": "float32", "quantization": {"min": -4.453852209765095, "scale": 0.00013156447611039186, "dtype": "uint16"}}, {"name": "resnet_v1_50/block4/unit_1/bottleneck_v1/conv2/Conv2D_bias", "shape": [512], "dtype": "float32", "quantization": {"min": -1.714067054673446, "scale": 6.709202499896063e-05, "dtype": "uint16"}}, {"name": "resnet_v1_50/block4/unit_1/bottleneck_v1/conv2/weights", "shape": [3, 3, 512, 512], "dtype": "float32", "quantization": {"min": -0.3844773149921464, "scale": 1.1836991317759501e-05, "dtype": "uint16"}}, {"name": "resnet_v1_50/block4/unit_1/bottleneck_v1/conv1/Conv2D_bias", "shape": [512], "dtype": "float32", "quantization": {"min": -2.326073106902137, "scale": 4.8454809017855163e-05, "dtype": "uint16"}}, {"name": "resnet_v1_50/block4/unit_1/bottleneck_v1/conv1/weights", "shape": [1, 1, 1024, 512], "dtype": "float32", "quantization": {"min": -0.3052805623464656, "scale": 9.94107793632048e-06, "dtype": "uint16"}}, {"name": "resnet_v1_50/displacement_bwd_2/Conv2D_bias", "shape": [32], "dtype": "float32", "quantization": {"min": -0.07650310987783004, "scale": 1.481183153491385e-06, "dtype": "uint16"}}, {"name": "resnet_v1_50/displacement_bwd_2/weights", "shape": [1, 1, 2048, 32], "dtype": "float32", "quantization": {"min": -0.953717353624638, "scale": 2.3700729463832952e-05, "dtype": "uint16"}}, {"name": "resnet_v1_50/offset_2/Conv2D_bias", "shape": [34], "dtype": "float32", "quantization": {"min": -0.04170937443342072, "scale": 1.0368244614055067e-06, "dtype": "uint16"}}, {"name": "resnet_v1_50/offset_2/weights", "shape": [1, 1, 2048, 34], "dtype": "float32", "quantization": {"min": -0.8463333749867527, "scale": 2.421901201850773e-05, "dtype": "uint16"}}, {"name": "resnet_v1_50/heatmap_2/Conv2D_bias", "shape": [17], "dtype": "float32", "quantization": {"min": -0.140382781624794, "scale": 1.5531385268700826e-06, "dtype": "uint16"}}, {"name": "resnet_v1_50/heatmap_2/weights", "shape": [1, 1, 2048, 17], "dtype": "float32", "quantization": {"min": -0.13890546781639126, "scale": 3.7772738297816734e-06, "dtype": "uint16"}}]}]}